<?xml version="1.0" ?>
<net name="bert-large-uncased-whole-word-masking-squad-0001" version="10">
	<layers>
		<layer id="0" name="bert.embeddings.word_embeddings.weight/Output_0/Data__const" type="Const" version="opset1">
			<data element_type="f16" offset="0" shape="30522,1024" size="62509056"/>
			<output>
				<port id="0" names="bert.embeddings.word_embeddings.weight" precision="FP16">
					<dim>30522</dim>
					<dim>1024</dim>
				</port>
			</output>
		</layer>
		<layer id="1" name="0" type="Parameter" version="opset1">
			<data element_type="i32" shape="1,384"/>
			<output>
				<port id="0" names="0" precision="I32">
					<dim>1</dim>
					<dim>384</dim>
				</port>
			</output>
		</layer>
		<layer id="2" name="4145140/Cast_2105209_const" type="Const" version="opset1">
			<data element_type="i64" offset="62509056" shape="" size="8"/>
			<output>
				<port id="0" precision="I64"/>
			</output>
		</layer>
		<layer id="3" name="4145140" type="Gather" version="opset1">
			<input>
				<port id="0">
					<dim>30522</dim>
					<dim>1024</dim>
				</port>
				<port id="1">
					<dim>1</dim>
					<dim>384</dim>
				</port>
				<port id="2"/>
			</input>
			<output>
				<port id="3" names="414" precision="FP16">
					<dim>1</dim>
					<dim>384</dim>
					<dim>1024</dim>
				</port>
			</output>
		</layer>
		<layer id="4" name="bert.embeddings.position_embeddings.weight/Output_0/Data__const" type="Const" version="opset1">
			<data element_type="f16" offset="62509064" shape="512,1024" size="1048576"/>
			<output>
				<port id="0" names="bert.embeddings.position_embeddings.weight" precision="FP16">
					<dim>512</dim>
					<dim>1024</dim>
				</port>
			</output>
		</layer>
		<layer id="5" name="409/Range_input_port_0/value/Output_0/Data__const" type="Const" version="opset1">
			<data element_type="i64" offset="62509056" shape="" size="8"/>
			<output>
				<port id="0" precision="I64"/>
			</output>
		</layer>
		<layer id="6" name="404" type="ShapeOf" version="opset3">
			<data output_type="i64"/>
			<input>
				<port id="0">
					<dim>1</dim>
					<dim>384</dim>
				</port>
			</input>
			<output>
				<port id="1" names="404" precision="I64">
					<dim>2</dim>
				</port>
			</output>
		</layer>
		<layer id="7" name="4055096/Cast_1106187_const" type="Const" version="opset1">
			<data element_type="i32" offset="63557640" shape="" size="4"/>
			<output>
				<port id="0" names="403" precision="I32"/>
			</output>
		</layer>
		<layer id="8" name="4055096/Cast_2106189_const" type="Const" version="opset1">
			<data element_type="i64" offset="62509056" shape="" size="8"/>
			<output>
				<port id="0" precision="I64"/>
			</output>
		</layer>
		<layer id="9" name="4055096" type="Gather" version="opset1">
			<input>
				<port id="0">
					<dim>2</dim>
				</port>
				<port id="1"/>
				<port id="2"/>
			</input>
			<output>
				<port id="3" names="405" precision="I64"/>
			</output>
		</layer>
		<layer id="10" name="410/Dims/Output_0/Data__const" type="Const" version="opset1">
			<data element_type="i64" offset="62509056" shape="1" size="8"/>
			<output>
				<port id="0" precision="I64">
					<dim>1</dim>
				</port>
			</output>
		</layer>
		<layer id="11" name="410/Unsqueeze" type="Unsqueeze" version="opset1">
			<input>
				<port id="0"/>
				<port id="1">
					<dim>1</dim>
				</port>
			</input>
			<output>
				<port id="2" names="410" precision="I64">
					<dim>1</dim>
				</port>
			</output>
		</layer>
		<layer id="12" name="407" type="ShapeOf" version="opset3">
			<data output_type="i64"/>
			<input>
				<port id="0">
					<dim>1</dim>
					<dim>384</dim>
				</port>
			</input>
			<output>
				<port id="1" names="407" precision="I64">
					<dim>2</dim>
				</port>
			</output>
		</layer>
		<layer id="13" name="4085018/Cast_1105077_const" type="Const" version="opset1">
			<data element_type="i32" offset="63557644" shape="" size="4"/>
			<output>
				<port id="0" names="406" precision="I32"/>
			</output>
		</layer>
		<layer id="14" name="4085018/Cast_2105079_const" type="Const" version="opset1">
			<data element_type="i64" offset="62509056" shape="" size="8"/>
			<output>
				<port id="0" precision="I64"/>
			</output>
		</layer>
		<layer id="15" name="4085018" type="Gather" version="opset1">
			<input>
				<port id="0">
					<dim>2</dim>
				</port>
				<port id="1"/>
				<port id="2"/>
			</input>
			<output>
				<port id="3" names="408" precision="I64"/>
			</output>
		</layer>
		<layer id="16" name="411/Dims/Output_0/Data__const" type="Const" version="opset1">
			<data element_type="i64" offset="62509056" shape="1" size="8"/>
			<output>
				<port id="0" precision="I64">
					<dim>1</dim>
				</port>
			</output>
		</layer>
		<layer id="17" name="411/Unsqueeze" type="Unsqueeze" version="opset1">
			<input>
				<port id="0"/>
				<port id="1">
					<dim>1</dim>
				</port>
			</input>
			<output>
				<port id="2" names="411" precision="I64">
					<dim>1</dim>
				</port>
			</output>
		</layer>
		<layer id="18" name="412" type="Concat" version="opset1">
			<data axis="0"/>
			<input>
				<port id="0">
					<dim>1</dim>
				</port>
				<port id="1">
					<dim>1</dim>
				</port>
			</input>
			<output>
				<port id="2" names="412" precision="I64">
					<dim>2</dim>
				</port>
			</output>
		</layer>
		<layer id="19" name="413/BroadcastingDim/Cast_1105771_const" type="Const" version="opset1">
			<data element_type="i32" offset="63557648" shape="" size="4"/>
			<output>
				<port id="0" precision="I32"/>
			</output>
		</layer>
		<layer id="20" name="413/BroadcastingDim/Cast_2105773_const" type="Const" version="opset1">
			<data element_type="i64" offset="62509056" shape="" size="8"/>
			<output>
				<port id="0" precision="I64"/>
			</output>
		</layer>
		<layer id="21" name="413/BroadcastingDim" type="Gather" version="opset1">
			<input>
				<port id="0">
					<dim>2</dim>
				</port>
				<port id="1"/>
				<port id="2"/>
			</input>
			<output>
				<port id="3" precision="I64"/>
			</output>
		</layer>
		<layer id="22" name="409/Range_input_port_2/value/Output_0/Data__const" type="Const" version="opset1">
			<data element_type="i64" offset="63557652" shape="" size="8"/>
			<output>
				<port id="0" precision="I64"/>
			</output>
		</layer>
		<layer id="23" name="409/Range" type="Range" version="opset4">
			<data output_type="i64"/>
			<input>
				<port id="0"/>
				<port id="1"/>
				<port id="2"/>
			</input>
			<output>
				<port id="3" precision="I64">
					<dim>384</dim>
				</port>
			</output>
		</layer>
		<layer id="24" name="409/KeepShape/value/Output_0/Data__const" type="Const" version="opset1">
			<data element_type="i64" offset="62509056" shape="1" size="8"/>
			<output>
				<port id="0" precision="I64">
					<dim>1</dim>
				</port>
			</output>
		</layer>
		<layer id="25" name="409" type="Unsqueeze" version="opset1">
			<input>
				<port id="0">
					<dim>384</dim>
				</port>
				<port id="1">
					<dim>1</dim>
				</port>
			</input>
			<output>
				<port id="2" names="409" precision="I64">
					<dim>1</dim>
					<dim>384</dim>
				</port>
			</output>
		</layer>
		<layer id="26" name="413" type="Broadcast" version="opset3">
			<data mode="bidirectional"/>
			<input>
				<port id="0">
					<dim>1</dim>
					<dim>384</dim>
				</port>
				<port id="1">
					<dim>2</dim>
				</port>
			</input>
			<output>
				<port id="2" precision="I64">
					<dim>1</dim>
					<dim>384</dim>
				</port>
			</output>
		</layer>
		<layer id="27" name="4154966/Cast_1" type="Convert" version="opset1">
			<data destination_type="i32"/>
			<input>
				<port id="0">
					<dim>1</dim>
					<dim>384</dim>
				</port>
			</input>
			<output>
				<port id="1" names="413" precision="I32">
					<dim>1</dim>
					<dim>384</dim>
				</port>
			</output>
		</layer>
		<layer id="28" name="4154966/Cast_2105805_const" type="Const" version="opset1">
			<data element_type="i64" offset="62509056" shape="" size="8"/>
			<output>
				<port id="0" precision="I64"/>
			</output>
		</layer>
		<layer id="29" name="4154966" type="Gather" version="opset1">
			<input>
				<port id="0">
					<dim>512</dim>
					<dim>1024</dim>
				</port>
				<port id="1">
					<dim>1</dim>
					<dim>384</dim>
				</port>
				<port id="2"/>
			</input>
			<output>
				<port id="3" names="415" precision="FP16">
					<dim>1</dim>
					<dim>384</dim>
					<dim>1024</dim>
				</port>
			</output>
		</layer>
		<layer id="30" name="417" type="Add" version="opset1">
			<data auto_broadcast="numpy"/>
			<input>
				<port id="0">
					<dim>1</dim>
					<dim>384</dim>
					<dim>1024</dim>
				</port>
				<port id="1">
					<dim>1</dim>
					<dim>384</dim>
					<dim>1024</dim>
				</port>
			</input>
			<output>
				<port id="2" names="417" precision="FP16">
					<dim>1</dim>
					<dim>384</dim>
					<dim>1024</dim>
				</port>
			</output>
		</layer>
		<layer id="31" name="bert.embeddings.token_type_embeddings.weight/Output_0/Data__const" type="Const" version="opset1">
			<data element_type="f16" offset="63557660" shape="2,1024" size="4096"/>
			<output>
				<port id="0" names="bert.embeddings.token_type_embeddings.weight" precision="FP16">
					<dim>2</dim>
					<dim>1024</dim>
				</port>
			</output>
		</layer>
		<layer id="32" name="2" type="Parameter" version="opset1">
			<data element_type="i32" shape="1,384"/>
			<output>
				<port id="0" names="2" precision="I32">
					<dim>1</dim>
					<dim>384</dim>
				</port>
			</output>
		</layer>
		<layer id="33" name="4164926/Cast_2104929_const" type="Const" version="opset1">
			<data element_type="i64" offset="62509056" shape="" size="8"/>
			<output>
				<port id="0" precision="I64"/>
			</output>
		</layer>
		<layer id="34" name="4164926" type="Gather" version="opset1">
			<input>
				<port id="0">
					<dim>2</dim>
					<dim>1024</dim>
				</port>
				<port id="1">
					<dim>1</dim>
					<dim>384</dim>
				</port>
				<port id="2"/>
			</input>
			<output>
				<port id="3" names="416" precision="FP16">
					<dim>1</dim>
					<dim>384</dim>
					<dim>1024</dim>
				</port>
			</output>
		</layer>
		<layer id="35" name="418" type="Add" version="opset1">
			<data auto_broadcast="numpy"/>
			<input>
				<port id="0">
					<dim>1</dim>
					<dim>384</dim>
					<dim>1024</dim>
				</port>
				<port id="1">
					<dim>1</dim>
					<dim>384</dim>
					<dim>1024</dim>
				</port>
			</input>
			<output>
				<port id="2" names="418" precision="FP16">
					<dim>1</dim>
					<dim>384</dim>
					<dim>1024</dim>
				</port>
			</output>
		</layer>
		<layer id="36" name="4450_input_port_1/value/Output_0/Data__const" type="Const" version="opset1">
			<data element_type="i64" offset="63561756" shape="1" size="8"/>
			<output>
				<port id="0" precision="I64">
					<dim>1</dim>
				</port>
			</output>
		</layer>
		<layer id="37" name="427" type="MVN" version="opset6">
			<data eps="9.999999960041972e-13" eps_mode="inside_sqrt" normalize_variance="true"/>
			<input>
				<port id="0">
					<dim>1</dim>
					<dim>384</dim>
					<dim>1024</dim>
				</port>
				<port id="1">
					<dim>1</dim>
				</port>
			</input>
			<output>
				<port id="2" names="427" precision="FP16">
					<dim>1</dim>
					<dim>384</dim>
					<dim>1024</dim>
				</port>
			</output>
		</layer>
		<layer id="38" name="bert.embeddings.LayerNorm.weight/EltwiseUnsqueeze46057_const" type="Const" version="opset1">
			<data element_type="f16" offset="63561764" shape="1,1,1024" size="2048"/>
			<output>
				<port id="0" names="bert.embeddings.LayerNorm.weight" precision="FP16">
					<dim>1</dim>
					<dim>1</dim>
					<dim>1024</dim>
				</port>
			</output>
		</layer>
		<layer id="39" name="428" type="Multiply" version="opset1">
			<data auto_broadcast="numpy"/>
			<input>
				<port id="0">
					<dim>1</dim>
					<dim>384</dim>
					<dim>1024</dim>
				</port>
				<port id="1">
					<dim>1</dim>
					<dim>1</dim>
					<dim>1024</dim>
				</port>
			</input>
			<output>
				<port id="2" names="428" precision="FP16">
					<dim>1</dim>
					<dim>384</dim>
					<dim>1024</dim>
				</port>
			</output>
		</layer>
		<layer id="40" name="bert.embeddings.LayerNorm.bias/EltwiseUnsqueeze46061_const" type="Const" version="opset1">
			<data element_type="f16" offset="63563812" shape="1,1,1024" size="2048"/>
			<output>
				<port id="0" names="bert.embeddings.LayerNorm.bias" precision="FP16">
					<dim>1</dim>
					<dim>1</dim>
					<dim>1024</dim>
				</port>
			</output>
		</layer>
		<layer id="41" name="429" type="Add" version="opset1">
			<data auto_broadcast="numpy"/>
			<input>
				<port id="0">
					<dim>1</dim>
					<dim>384</dim>
					<dim>1024</dim>
				</port>
				<port id="1">
					<dim>1</dim>
					<dim>1</dim>
					<dim>1024</dim>
				</port>
			</input>
			<output>
				<port id="2" names="429" precision="FP16">
					<dim>1</dim>
					<dim>384</dim>
					<dim>1024</dim>
				</port>
			</output>
		</layer>
		<layer id="42" name="431/1_port_transpose70141_const" type="Const" version="opset1">
			<data element_type="f16" offset="63565860" shape="1024,1024" size="2097152"/>
			<output>
				<port id="0" names="430" precision="FP16">
					<dim>1024</dim>
					<dim>1024</dim>
				</port>
			</output>
		</layer>
		<layer id="43" name="431" type="MatMul" version="opset1">
			<data transpose_a="false" transpose_b="true"/>
			<input>
				<port id="0">
					<dim>1</dim>
					<dim>384</dim>
					<dim>1024</dim>
				</port>
				<port id="1">
					<dim>1024</dim>
					<dim>1024</dim>
				</port>
			</input>
			<output>
				<port id="2" names="431" precision="FP16">
					<dim>1</dim>
					<dim>384</dim>
					<dim>1024</dim>
				</port>
			</output>
		</layer>
		<layer id="44" name="bert.encoder.layer.0.attention.self.query.bias/EltwiseUnsqueeze46065_const" type="Const" version="opset1">
			<data element_type="f16" offset="65663012" shape="1,1,1024" size="2048"/>
			<output>
				<port id="0" names="bert.encoder.layer.0.attention.self.query.bias" precision="FP16">
					<dim>1</dim>
					<dim>1</dim>
					<dim>1024</dim>
				</port>
			</output>
		</layer>
		<layer id="45" name="432" type="Add" version="opset1">
			<data auto_broadcast="numpy"/>
			<input>
				<port id="0">
					<dim>1</dim>
					<dim>384</dim>
					<dim>1024</dim>
				</port>
				<port id="1">
					<dim>1</dim>
					<dim>1</dim>
					<dim>1024</dim>
				</port>
			</input>
			<output>
				<port id="2" names="432" precision="FP16">
					<dim>1</dim>
					<dim>384</dim>
					<dim>1024</dim>
				</port>
			</output>
		</layer>
		<layer id="46" name="440" type="ShapeOf" version="opset3">
			<data output_type="i64"/>
			<input>
				<port id="0">
					<dim>1</dim>
					<dim>384</dim>
					<dim>1024</dim>
				</port>
			</input>
			<output>
				<port id="1" names="440" precision="I64">
					<dim>3</dim>
				</port>
			</output>
		</layer>
		<layer id="47" name="4415164/Cast_1105785_const" type="Const" version="opset1">
			<data element_type="i32" offset="63557640" shape="" size="4"/>
			<output>
				<port id="0" names="439" precision="I32"/>
			</output>
		</layer>
		<layer id="48" name="4415164/Cast_2105787_const" type="Const" version="opset1">
			<data element_type="i64" offset="62509056" shape="" size="8"/>
			<output>
				<port id="0" precision="I64"/>
			</output>
		</layer>
		<layer id="49" name="4415164" type="Gather" version="opset1">
			<input>
				<port id="0">
					<dim>3</dim>
				</port>
				<port id="1"/>
				<port id="2"/>
			</input>
			<output>
				<port id="3" names="441" precision="I64"/>
			</output>
		</layer>
		<layer id="50" name="447/Dims/Output_0/Data__const" type="Const" version="opset1">
			<data element_type="i64" offset="62509056" shape="1" size="8"/>
			<output>
				<port id="0" precision="I64">
					<dim>1</dim>
				</port>
			</output>
		</layer>
		<layer id="51" name="447/Unsqueeze" type="Unsqueeze" version="opset1">
			<input>
				<port id="0"/>
				<port id="1">
					<dim>1</dim>
				</port>
			</input>
			<output>
				<port id="2" names="447" precision="I64">
					<dim>1</dim>
				</port>
			</output>
		</layer>
		<layer id="52" name="443" type="ShapeOf" version="opset3">
			<data output_type="i64"/>
			<input>
				<port id="0">
					<dim>1</dim>
					<dim>384</dim>
					<dim>1024</dim>
				</port>
			</input>
			<output>
				<port id="1" names="443" precision="I64">
					<dim>3</dim>
				</port>
			</output>
		</layer>
		<layer id="53" name="4445044/Cast_1105793_const" type="Const" version="opset1">
			<data element_type="i32" offset="63557644" shape="" size="4"/>
			<output>
				<port id="0" names="442" precision="I32"/>
			</output>
		</layer>
		<layer id="54" name="4445044/Cast_2105795_const" type="Const" version="opset1">
			<data element_type="i64" offset="62509056" shape="" size="8"/>
			<output>
				<port id="0" precision="I64"/>
			</output>
		</layer>
		<layer id="55" name="4445044" type="Gather" version="opset1">
			<input>
				<port id="0">
					<dim>3</dim>
				</port>
				<port id="1"/>
				<port id="2"/>
			</input>
			<output>
				<port id="3" names="444" precision="I64"/>
			</output>
		</layer>
		<layer id="56" name="448/Dims/Output_0/Data__const" type="Const" version="opset1">
			<data element_type="i64" offset="62509056" shape="1" size="8"/>
			<output>
				<port id="0" precision="I64">
					<dim>1</dim>
				</port>
			</output>
		</layer>
		<layer id="57" name="448/Unsqueeze" type="Unsqueeze" version="opset1">
			<input>
				<port id="0"/>
				<port id="1">
					<dim>1</dim>
				</port>
			</input>
			<output>
				<port id="2" names="448" precision="I64">
					<dim>1</dim>
				</port>
			</output>
		</layer>
		<layer id="58" name="449/Unsqueeze/Output_0/Data__const" type="Const" version="opset1">
			<data element_type="i64" offset="65665060" shape="1" size="8"/>
			<output>
				<port id="0" names="449" precision="I64">
					<dim>1</dim>
				</port>
			</output>
		</layer>
		<layer id="59" name="450/Unsqueeze/Output_0/Data__const" type="Const" version="opset1">
			<data element_type="i64" offset="65665068" shape="1" size="8"/>
			<output>
				<port id="0" names="450" precision="I64">
					<dim>1</dim>
				</port>
			</output>
		</layer>
		<layer id="60" name="451" type="Concat" version="opset1">
			<data axis="0"/>
			<input>
				<port id="0">
					<dim>1</dim>
				</port>
				<port id="1">
					<dim>1</dim>
				</port>
				<port id="2">
					<dim>1</dim>
				</port>
				<port id="3">
					<dim>1</dim>
				</port>
			</input>
			<output>
				<port id="4" names="451" precision="I64">
					<dim>4</dim>
				</port>
			</output>
		</layer>
		<layer id="61" name="452" type="Reshape" version="opset1">
			<data special_zero="true"/>
			<input>
				<port id="0">
					<dim>1</dim>
					<dim>384</dim>
					<dim>1024</dim>
				</port>
				<port id="1">
					<dim>4</dim>
				</port>
			</input>
			<output>
				<port id="2" names="452" precision="FP16">
					<dim>1</dim>
					<dim>384</dim>
					<dim>16</dim>
					<dim>64</dim>
				</port>
			</output>
		</layer>
		<layer id="62" name="453/Cast_1105475_const" type="Const" version="opset1">
			<data element_type="i64" offset="65665076" shape="4" size="32"/>
			<output>
				<port id="0" precision="I64">
					<dim>4</dim>
				</port>
			</output>
		</layer>
		<layer id="63" name="453" type="Transpose" version="opset1">
			<input>
				<port id="0">
					<dim>1</dim>
					<dim>384</dim>
					<dim>16</dim>
					<dim>64</dim>
				</port>
				<port id="1">
					<dim>4</dim>
				</port>
			</input>
			<output>
				<port id="2" names="453" precision="FP16">
					<dim>1</dim>
					<dim>16</dim>
					<dim>384</dim>
					<dim>64</dim>
				</port>
			</output>
		</layer>
		<layer id="64" name="434/1_port_transpose70105_const" type="Const" version="opset1">
			<data element_type="f16" offset="65665108" shape="1024,1024" size="2097152"/>
			<output>
				<port id="0" names="433" precision="FP16">
					<dim>1024</dim>
					<dim>1024</dim>
				</port>
			</output>
		</layer>
		<layer id="65" name="434" type="MatMul" version="opset1">
			<data transpose_a="false" transpose_b="true"/>
			<input>
				<port id="0">
					<dim>1</dim>
					<dim>384</dim>
					<dim>1024</dim>
				</port>
				<port id="1">
					<dim>1024</dim>
					<dim>1024</dim>
				</port>
			</input>
			<output>
				<port id="2" names="434" precision="FP16">
					<dim>1</dim>
					<dim>384</dim>
					<dim>1024</dim>
				</port>
			</output>
		</layer>
		<layer id="66" name="bert.encoder.layer.0.attention.self.key.bias/EltwiseUnsqueeze46069_const" type="Const" version="opset1">
			<data element_type="f16" offset="67762260" shape="1,1,1024" size="2048"/>
			<output>
				<port id="0" names="bert.encoder.layer.0.attention.self.key.bias" precision="FP16">
					<dim>1</dim>
					<dim>1</dim>
					<dim>1024</dim>
				</port>
			</output>
		</layer>
		<layer id="67" name="435" type="Add" version="opset1">
			<data auto_broadcast="numpy"/>
			<input>
				<port id="0">
					<dim>1</dim>
					<dim>384</dim>
					<dim>1024</dim>
				</port>
				<port id="1">
					<dim>1</dim>
					<dim>1</dim>
					<dim>1024</dim>
				</port>
			</input>
			<output>
				<port id="2" names="435" precision="FP16">
					<dim>1</dim>
					<dim>384</dim>
					<dim>1024</dim>
				</port>
			</output>
		</layer>
		<layer id="68" name="455" type="ShapeOf" version="opset3">
			<data output_type="i64"/>
			<input>
				<port id="0">
					<dim>1</dim>
					<dim>384</dim>
					<dim>1024</dim>
				</port>
			</input>
			<output>
				<port id="1" names="455" precision="I64">
					<dim>3</dim>
				</port>
			</output>
		</layer>
		<layer id="69" name="4564988/Cast_1105101_const" type="Const" version="opset1">
			<data element_type="i32" offset="63557640" shape="" size="4"/>
			<output>
				<port id="0" names="454" precision="I32"/>
			</output>
		</layer>
		<layer id="70" name="4564988/Cast_2105103_const" type="Const" version="opset1">
			<data element_type="i64" offset="62509056" shape="" size="8"/>
			<output>
				<port id="0" precision="I64"/>
			</output>
		</layer>
		<layer id="71" name="4564988" type="Gather" version="opset1">
			<input>
				<port id="0">
					<dim>3</dim>
				</port>
				<port id="1"/>
				<port id="2"/>
			</input>
			<output>
				<port id="3" names="456" precision="I64"/>
			</output>
		</layer>
		<layer id="72" name="462/Dims/Output_0/Data__const" type="Const" version="opset1">
			<data element_type="i64" offset="62509056" shape="1" size="8"/>
			<output>
				<port id="0" precision="I64">
					<dim>1</dim>
				</port>
			</output>
		</layer>
		<layer id="73" name="462/Unsqueeze" type="Unsqueeze" version="opset1">
			<input>
				<port id="0"/>
				<port id="1">
					<dim>1</dim>
				</port>
			</input>
			<output>
				<port id="2" names="462" precision="I64">
					<dim>1</dim>
				</port>
			</output>
		</layer>
		<layer id="74" name="458" type="ShapeOf" version="opset3">
			<data output_type="i64"/>
			<input>
				<port id="0">
					<dim>1</dim>
					<dim>384</dim>
					<dim>1024</dim>
				</port>
			</input>
			<output>
				<port id="1" names="458" precision="I64">
					<dim>3</dim>
				</port>
			</output>
		</layer>
		<layer id="75" name="4595174/Cast_1105933_const" type="Const" version="opset1">
			<data element_type="i32" offset="63557644" shape="" size="4"/>
			<output>
				<port id="0" names="457" precision="I32"/>
			</output>
		</layer>
		<layer id="76" name="4595174/Cast_2105935_const" type="Const" version="opset1">
			<data element_type="i64" offset="62509056" shape="" size="8"/>
			<output>
				<port id="0" precision="I64"/>
			</output>
		</layer>
		<layer id="77" name="4595174" type="Gather" version="opset1">
			<input>
				<port id="0">
					<dim>3</dim>
				</port>
				<port id="1"/>
				<port id="2"/>
			</input>
			<output>
				<port id="3" names="459" precision="I64"/>
			</output>
		</layer>
		<layer id="78" name="463/Dims/Output_0/Data__const" type="Const" version="opset1">
			<data element_type="i64" offset="62509056" shape="1" size="8"/>
			<output>
				<port id="0" precision="I64">
					<dim>1</dim>
				</port>
			</output>
		</layer>
		<layer id="79" name="463/Unsqueeze" type="Unsqueeze" version="opset1">
			<input>
				<port id="0"/>
				<port id="1">
					<dim>1</dim>
				</port>
			</input>
			<output>
				<port id="2" names="463" precision="I64">
					<dim>1</dim>
				</port>
			</output>
		</layer>
		<layer id="80" name="464/Unsqueeze/Output_0/Data__const" type="Const" version="opset1">
			<data element_type="i64" offset="65665060" shape="1" size="8"/>
			<output>
				<port id="0" names="464" precision="I64">
					<dim>1</dim>
				</port>
			</output>
		</layer>
		<layer id="81" name="465/Unsqueeze/Output_0/Data__const" type="Const" version="opset1">
			<data element_type="i64" offset="65665068" shape="1" size="8"/>
			<output>
				<port id="0" names="465" precision="I64">
					<dim>1</dim>
				</port>
			</output>
		</layer>
		<layer id="82" name="466" type="Concat" version="opset1">
			<data axis="0"/>
			<input>
				<port id="0">
					<dim>1</dim>
				</port>
				<port id="1">
					<dim>1</dim>
				</port>
				<port id="2">
					<dim>1</dim>
				</port>
				<port id="3">
					<dim>1</dim>
				</port>
			</input>
			<output>
				<port id="4" names="466" precision="I64">
					<dim>4</dim>
				</port>
			</output>
		</layer>
		<layer id="83" name="467" type="Reshape" version="opset1">
			<data special_zero="true"/>
			<input>
				<port id="0">
					<dim>1</dim>
					<dim>384</dim>
					<dim>1024</dim>
				</port>
				<port id="1">
					<dim>4</dim>
				</port>
			</input>
			<output>
				<port id="2" names="467" precision="FP16">
					<dim>1</dim>
					<dim>384</dim>
					<dim>16</dim>
					<dim>64</dim>
				</port>
			</output>
		</layer>
		<layer id="84" name="483/Cast_1105197_const" type="Const" version="opset1">
			<data element_type="i64" offset="67764308" shape="4" size="32"/>
			<output>
				<port id="0" precision="I64">
					<dim>4</dim>
				</port>
			</output>
		</layer>
		<layer id="85" name="483" type="Transpose" version="opset1">
			<input>
				<port id="0">
					<dim>1</dim>
					<dim>384</dim>
					<dim>16</dim>
					<dim>64</dim>
				</port>
				<port id="1">
					<dim>4</dim>
				</port>
			</input>
			<output>
				<port id="2" precision="FP16">
					<dim>1</dim>
					<dim>16</dim>
					<dim>64</dim>
					<dim>384</dim>
				</port>
			</output>
		</layer>
		<layer id="86" name="486_copy/const4855454312/EltwiseUnsqueeze54339_const" type="Const" version="opset1">
			<data element_type="f16" offset="67764340" shape="1,16,1,1" size="32"/>
			<output>
				<port id="0" precision="FP16">
					<dim>1</dim>
					<dim>16</dim>
					<dim>1</dim>
					<dim>1</dim>
				</port>
			</output>
		</layer>
		<layer id="87" name="486_copy" type="Multiply" version="opset1">
			<data auto_broadcast="numpy"/>
			<input>
				<port id="0">
					<dim>1</dim>
					<dim>16</dim>
					<dim>64</dim>
					<dim>384</dim>
				</port>
				<port id="1">
					<dim>1</dim>
					<dim>16</dim>
					<dim>1</dim>
					<dim>1</dim>
				</port>
			</input>
			<output>
				<port id="2" names="483" precision="FP16">
					<dim>1</dim>
					<dim>16</dim>
					<dim>64</dim>
					<dim>384</dim>
				</port>
			</output>
		</layer>
		<layer id="88" name="484" type="MatMul" version="opset1">
			<data transpose_a="false" transpose_b="false"/>
			<input>
				<port id="0">
					<dim>1</dim>
					<dim>16</dim>
					<dim>384</dim>
					<dim>64</dim>
				</port>
				<port id="1">
					<dim>1</dim>
					<dim>16</dim>
					<dim>64</dim>
					<dim>384</dim>
				</port>
			</input>
			<output>
				<port id="2" names="486" precision="FP16">
					<dim>1</dim>
					<dim>16</dim>
					<dim>384</dim>
					<dim>384</dim>
				</port>
			</output>
		</layer>
		<layer id="89" name="1" type="Parameter" version="opset1">
			<data element_type="i32" shape="1,384"/>
			<output>
				<port id="0" names="1" precision="I32">
					<dim>1</dim>
					<dim>384</dim>
				</port>
			</output>
		</layer>
		<layer id="90" name="396/Dims/Output_0/Data__const" type="Const" version="opset1">
			<data element_type="i64" offset="63557652" shape="1" size="8"/>
			<output>
				<port id="0" precision="I64">
					<dim>1</dim>
				</port>
			</output>
		</layer>
		<layer id="91" name="396/Unsqueeze" type="Unsqueeze" version="opset1">
			<input>
				<port id="0">
					<dim>1</dim>
					<dim>384</dim>
				</port>
				<port id="1">
					<dim>1</dim>
				</port>
			</input>
			<output>
				<port id="2" names="396" precision="I32">
					<dim>1</dim>
					<dim>1</dim>
					<dim>384</dim>
				</port>
			</output>
		</layer>
		<layer id="92" name="397/Dims/Output_0/Data__const" type="Const" version="opset1">
			<data element_type="i64" offset="67764372" shape="1" size="8"/>
			<output>
				<port id="0" precision="I64">
					<dim>1</dim>
				</port>
			</output>
		</layer>
		<layer id="93" name="397/Unsqueeze" type="Unsqueeze" version="opset1">
			<input>
				<port id="0">
					<dim>1</dim>
					<dim>1</dim>
					<dim>384</dim>
				</port>
				<port id="1">
					<dim>1</dim>
				</port>
			</input>
			<output>
				<port id="2" names="397" precision="I32">
					<dim>1</dim>
					<dim>1</dim>
					<dim>1</dim>
					<dim>384</dim>
				</port>
			</output>
		</layer>
		<layer id="94" name="398" type="Convert" version="opset1">
			<data destination_type="f16"/>
			<input>
				<port id="0">
					<dim>1</dim>
					<dim>1</dim>
					<dim>1</dim>
					<dim>384</dim>
				</port>
			</input>
			<output>
				<port id="1" precision="FP16">
					<dim>1</dim>
					<dim>1</dim>
					<dim>1</dim>
					<dim>384</dim>
				</port>
			</output>
		</layer>
		<layer id="95" name="data_mul_4462846052/EltwiseUnsqueeze47125_const" type="Const" version="opset1">
			<data element_type="f16" offset="67764380" shape="1,1,1,1" size="2"/>
			<output>
				<port id="0" precision="FP16">
					<dim>1</dim>
					<dim>1</dim>
					<dim>1</dim>
					<dim>1</dim>
				</port>
			</output>
		</layer>
		<layer id="96" name="400/neg_/Fused_Mul_" type="Multiply" version="opset1">
			<data auto_broadcast="numpy"/>
			<input>
				<port id="0">
					<dim>1</dim>
					<dim>1</dim>
					<dim>1</dim>
					<dim>384</dim>
				</port>
				<port id="1">
					<dim>1</dim>
					<dim>1</dim>
					<dim>1</dim>
					<dim>1</dim>
				</port>
			</input>
			<output>
				<port id="2" precision="FP16">
					<dim>1</dim>
					<dim>1</dim>
					<dim>1</dim>
					<dim>384</dim>
				</port>
			</output>
		</layer>
		<layer id="97" name="data_add_4463046053/EltwiseUnsqueeze47129_const" type="Const" version="opset1">
			<data element_type="f16" offset="67764382" shape="1,1,1,1" size="2"/>
			<output>
				<port id="0" precision="FP16">
					<dim>1</dim>
					<dim>1</dim>
					<dim>1</dim>
					<dim>1</dim>
				</port>
			</output>
		</layer>
		<layer id="98" name="400/Fused_Add_" type="Add" version="opset1">
			<data auto_broadcast="numpy"/>
			<input>
				<port id="0">
					<dim>1</dim>
					<dim>1</dim>
					<dim>1</dim>
					<dim>384</dim>
				</port>
				<port id="1">
					<dim>1</dim>
					<dim>1</dim>
					<dim>1</dim>
					<dim>1</dim>
				</port>
			</input>
			<output>
				<port id="2" names="402" precision="FP16">
					<dim>1</dim>
					<dim>1</dim>
					<dim>1</dim>
					<dim>384</dim>
				</port>
			</output>
		</layer>
		<layer id="99" name="487" type="Add" version="opset1">
			<data auto_broadcast="numpy"/>
			<input>
				<port id="0">
					<dim>1</dim>
					<dim>16</dim>
					<dim>384</dim>
					<dim>384</dim>
				</port>
				<port id="1">
					<dim>1</dim>
					<dim>1</dim>
					<dim>1</dim>
					<dim>384</dim>
				</port>
			</input>
			<output>
				<port id="2" names="487" precision="FP16">
					<dim>1</dim>
					<dim>16</dim>
					<dim>384</dim>
					<dim>384</dim>
				</port>
			</output>
		</layer>
		<layer id="100" name="488/FlattenONNX_/input_shape" type="ShapeOf" version="opset3">
			<data output_type="i64"/>
			<input>
				<port id="0">
					<dim>1</dim>
					<dim>16</dim>
					<dim>384</dim>
					<dim>384</dim>
				</port>
			</input>
			<output>
				<port id="1" precision="I64">
					<dim>4</dim>
				</port>
			</output>
		</layer>
		<layer id="101" name="488/FlattenONNX_/input_shape/Gather/Cast_1105897_const" type="Const" version="opset1">
			<data element_type="i32" offset="67764384" shape="3" size="12"/>
			<output>
				<port id="0" precision="I32">
					<dim>3</dim>
				</port>
			</output>
		</layer>
		<layer id="102" name="488/FlattenONNX_/input_shape/Gather/Cast_2105899_const" type="Const" version="opset1">
			<data element_type="i64" offset="62509056" shape="" size="8"/>
			<output>
				<port id="0" precision="I64"/>
			</output>
		</layer>
		<layer id="103" name="488/FlattenONNX_/input_shape/Gather" type="Gather" version="opset1">
			<input>
				<port id="0">
					<dim>4</dim>
				</port>
				<port id="1">
					<dim>3</dim>
				</port>
				<port id="2"/>
			</input>
			<output>
				<port id="3" precision="I64">
					<dim>3</dim>
				</port>
			</output>
		</layer>
		<layer id="104" name="488/FlattenONNX_/first_dims/Cast_1105365_const" type="Const" version="opset1">
			<data element_type="i64" offset="62509056" shape="1" size="8"/>
			<output>
				<port id="0" precision="I64">
					<dim>1</dim>
				</port>
			</output>
		</layer>
		<layer id="105" name="488/FlattenONNX_/first_dims" type="ReduceProd" version="opset1">
			<data keep_dims="true"/>
			<input>
				<port id="0">
					<dim>3</dim>
				</port>
				<port id="1">
					<dim>1</dim>
				</port>
			</input>
			<output>
				<port id="2" precision="I64">
					<dim>1</dim>
				</port>
			</output>
		</layer>
		<layer id="106" name="488/FlattenONNX_/second_dims/Output_0/Data__const" type="Const" version="opset1">
			<data element_type="i64" offset="63561756" shape="1" size="8"/>
			<output>
				<port id="0" precision="I64">
					<dim>1</dim>
				</port>
			</output>
		</layer>
		<layer id="107" name="488/FlattenONNX_/first_dims/shapes_concat" type="Concat" version="opset1">
			<data axis="0"/>
			<input>
				<port id="0">
					<dim>1</dim>
				</port>
				<port id="1">
					<dim>1</dim>
				</port>
			</input>
			<output>
				<port id="2" precision="I64">
					<dim>2</dim>
				</port>
			</output>
		</layer>
		<layer id="108" name="488/FlattenONNX_/Reshape" type="Reshape" version="opset1">
			<data special_zero="true"/>
			<input>
				<port id="0">
					<dim>1</dim>
					<dim>16</dim>
					<dim>384</dim>
					<dim>384</dim>
				</port>
				<port id="1">
					<dim>2</dim>
				</port>
			</input>
			<output>
				<port id="2" precision="FP16">
					<dim>6144</dim>
					<dim>384</dim>
				</port>
			</output>
		</layer>
		<layer id="109" name="488/Softmax_" type="SoftMax" version="opset1">
			<data axis="1"/>
			<input>
				<port id="0">
					<dim>6144</dim>
					<dim>384</dim>
				</port>
			</input>
			<output>
				<port id="1" precision="FP16">
					<dim>6144</dim>
					<dim>384</dim>
				</port>
			</output>
		</layer>
		<layer id="110" name="488/ShapeOf_" type="ShapeOf" version="opset3">
			<data output_type="i64"/>
			<input>
				<port id="0">
					<dim>1</dim>
					<dim>16</dim>
					<dim>384</dim>
					<dim>384</dim>
				</port>
			</input>
			<output>
				<port id="1" precision="I64">
					<dim>4</dim>
				</port>
			</output>
		</layer>
		<layer id="111" name="488" type="Reshape" version="opset1">
			<data special_zero="true"/>
			<input>
				<port id="0">
					<dim>6144</dim>
					<dim>384</dim>
				</port>
				<port id="1">
					<dim>4</dim>
				</port>
			</input>
			<output>
				<port id="2" names="488" precision="FP16">
					<dim>1</dim>
					<dim>16</dim>
					<dim>384</dim>
					<dim>384</dim>
				</port>
			</output>
		</layer>
		<layer id="112" name="437/1_port_transpose70253_const" type="Const" version="opset1">
			<data element_type="f16" offset="67764396" shape="1024,1024" size="2097152"/>
			<output>
				<port id="0" names="436" precision="FP16">
					<dim>1024</dim>
					<dim>1024</dim>
				</port>
			</output>
		</layer>
		<layer id="113" name="437" type="MatMul" version="opset1">
			<data transpose_a="false" transpose_b="true"/>
			<input>
				<port id="0">
					<dim>1</dim>
					<dim>384</dim>
					<dim>1024</dim>
				</port>
				<port id="1">
					<dim>1024</dim>
					<dim>1024</dim>
				</port>
			</input>
			<output>
				<port id="2" names="437" precision="FP16">
					<dim>1</dim>
					<dim>384</dim>
					<dim>1024</dim>
				</port>
			</output>
		</layer>
		<layer id="114" name="bert.encoder.layer.0.attention.self.value.bias/EltwiseUnsqueeze46073_const" type="Const" version="opset1">
			<data element_type="f16" offset="69861548" shape="1,1,1024" size="2048"/>
			<output>
				<port id="0" names="bert.encoder.layer.0.attention.self.value.bias" precision="FP16">
					<dim>1</dim>
					<dim>1</dim>
					<dim>1024</dim>
				</port>
			</output>
		</layer>
		<layer id="115" name="438" type="Add" version="opset1">
			<data auto_broadcast="numpy"/>
			<input>
				<port id="0">
					<dim>1</dim>
					<dim>384</dim>
					<dim>1024</dim>
				</port>
				<port id="1">
					<dim>1</dim>
					<dim>1</dim>
					<dim>1024</dim>
				</port>
			</input>
			<output>
				<port id="2" names="438" precision="FP16">
					<dim>1</dim>
					<dim>384</dim>
					<dim>1024</dim>
				</port>
			</output>
		</layer>
		<layer id="116" name="469" type="ShapeOf" version="opset3">
			<data output_type="i64"/>
			<input>
				<port id="0">
					<dim>1</dim>
					<dim>384</dim>
					<dim>1024</dim>
				</port>
			</input>
			<output>
				<port id="1" names="469" precision="I64">
					<dim>3</dim>
				</port>
			</output>
		</layer>
		<layer id="117" name="4705046/Cast_1105023_const" type="Const" version="opset1">
			<data element_type="i32" offset="63557640" shape="" size="4"/>
			<output>
				<port id="0" names="468" precision="I32"/>
			</output>
		</layer>
		<layer id="118" name="4705046/Cast_2105025_const" type="Const" version="opset1">
			<data element_type="i64" offset="62509056" shape="" size="8"/>
			<output>
				<port id="0" precision="I64"/>
			</output>
		</layer>
		<layer id="119" name="4705046" type="Gather" version="opset1">
			<input>
				<port id="0">
					<dim>3</dim>
				</port>
				<port id="1"/>
				<port id="2"/>
			</input>
			<output>
				<port id="3" names="470" precision="I64"/>
			</output>
		</layer>
		<layer id="120" name="476/Dims/Output_0/Data__const" type="Const" version="opset1">
			<data element_type="i64" offset="62509056" shape="1" size="8"/>
			<output>
				<port id="0" precision="I64">
					<dim>1</dim>
				</port>
			</output>
		</layer>
		<layer id="121" name="476/Unsqueeze" type="Unsqueeze" version="opset1">
			<input>
				<port id="0"/>
				<port id="1">
					<dim>1</dim>
				</port>
			</input>
			<output>
				<port id="2" names="476" precision="I64">
					<dim>1</dim>
				</port>
			</output>
		</layer>
		<layer id="122" name="472" type="ShapeOf" version="opset3">
			<data output_type="i64"/>
			<input>
				<port id="0">
					<dim>1</dim>
					<dim>384</dim>
					<dim>1024</dim>
				</port>
			</input>
			<output>
				<port id="1" names="472" precision="I64">
					<dim>3</dim>
				</port>
			</output>
		</layer>
		<layer id="123" name="4735010/Cast_1106139_const" type="Const" version="opset1">
			<data element_type="i32" offset="63557644" shape="" size="4"/>
			<output>
				<port id="0" names="471" precision="I32"/>
			</output>
		</layer>
		<layer id="124" name="4735010/Cast_2106141_const" type="Const" version="opset1">
			<data element_type="i64" offset="62509056" shape="" size="8"/>
			<output>
				<port id="0" precision="I64"/>
			</output>
		</layer>
		<layer id="125" name="4735010" type="Gather" version="opset1">
			<input>
				<port id="0">
					<dim>3</dim>
				</port>
				<port id="1"/>
				<port id="2"/>
			</input>
			<output>
				<port id="3" names="473" precision="I64"/>
			</output>
		</layer>
		<layer id="126" name="477/Dims/Output_0/Data__const" type="Const" version="opset1">
			<data element_type="i64" offset="62509056" shape="1" size="8"/>
			<output>
				<port id="0" precision="I64">
					<dim>1</dim>
				</port>
			</output>
		</layer>
		<layer id="127" name="477/Unsqueeze" type="Unsqueeze" version="opset1">
			<input>
				<port id="0"/>
				<port id="1">
					<dim>1</dim>
				</port>
			</input>
			<output>
				<port id="2" names="477" precision="I64">
					<dim>1</dim>
				</port>
			</output>
		</layer>
		<layer id="128" name="478/Unsqueeze/Output_0/Data__const" type="Const" version="opset1">
			<data element_type="i64" offset="65665060" shape="1" size="8"/>
			<output>
				<port id="0" names="478" precision="I64">
					<dim>1</dim>
				</port>
			</output>
		</layer>
		<layer id="129" name="479/Unsqueeze/Output_0/Data__const" type="Const" version="opset1">
			<data element_type="i64" offset="65665068" shape="1" size="8"/>
			<output>
				<port id="0" names="479" precision="I64">
					<dim>1</dim>
				</port>
			</output>
		</layer>
		<layer id="130" name="480" type="Concat" version="opset1">
			<data axis="0"/>
			<input>
				<port id="0">
					<dim>1</dim>
				</port>
				<port id="1">
					<dim>1</dim>
				</port>
				<port id="2">
					<dim>1</dim>
				</port>
				<port id="3">
					<dim>1</dim>
				</port>
			</input>
			<output>
				<port id="4" names="480" precision="I64">
					<dim>4</dim>
				</port>
			</output>
		</layer>
		<layer id="131" name="481" type="Reshape" version="opset1">
			<data special_zero="true"/>
			<input>
				<port id="0">
					<dim>1</dim>
					<dim>384</dim>
					<dim>1024</dim>
				</port>
				<port id="1">
					<dim>4</dim>
				</port>
			</input>
			<output>
				<port id="2" names="481" precision="FP16">
					<dim>1</dim>
					<dim>384</dim>
					<dim>16</dim>
					<dim>64</dim>
				</port>
			</output>
		</layer>
		<layer id="132" name="482/Cast_1105329_const" type="Const" version="opset1">
			<data element_type="i64" offset="65665076" shape="4" size="32"/>
			<output>
				<port id="0" precision="I64">
					<dim>4</dim>
				</port>
			</output>
		</layer>
		<layer id="133" name="482" type="Transpose" version="opset1">
			<input>
				<port id="0">
					<dim>1</dim>
					<dim>384</dim>
					<dim>16</dim>
					<dim>64</dim>
				</port>
				<port id="1">
					<dim>4</dim>
				</port>
			</input>
			<output>
				<port id="2" names="482" precision="FP16">
					<dim>1</dim>
					<dim>16</dim>
					<dim>384</dim>
					<dim>64</dim>
				</port>
			</output>
		</layer>
		<layer id="134" name="489" type="MatMul" version="opset1">
			<data transpose_a="false" transpose_b="false"/>
			<input>
				<port id="0">
					<dim>1</dim>
					<dim>16</dim>
					<dim>384</dim>
					<dim>384</dim>
				</port>
				<port id="1">
					<dim>1</dim>
					<dim>16</dim>
					<dim>384</dim>
					<dim>64</dim>
				</port>
			</input>
			<output>
				<port id="2" names="489" precision="FP16">
					<dim>1</dim>
					<dim>16</dim>
					<dim>384</dim>
					<dim>64</dim>
				</port>
			</output>
		</layer>
		<layer id="135" name="490/Cast_1106149_const" type="Const" version="opset1">
			<data element_type="i64" offset="65665076" shape="4" size="32"/>
			<output>
				<port id="0" precision="I64">
					<dim>4</dim>
				</port>
			</output>
		</layer>
		<layer id="136" name="490" type="Transpose" version="opset1">
			<input>
				<port id="0">
					<dim>1</dim>
					<dim>16</dim>
					<dim>384</dim>
					<dim>64</dim>
				</port>
				<port id="1">
					<dim>4</dim>
				</port>
			</input>
			<output>
				<port id="2" names="490" precision="FP16">
					<dim>1</dim>
					<dim>384</dim>
					<dim>16</dim>
					<dim>64</dim>
				</port>
			</output>
		</layer>
		<layer id="137" name="492" type="ShapeOf" version="opset3">
			<data output_type="i64"/>
			<input>
				<port id="0">
					<dim>1</dim>
					<dim>384</dim>
					<dim>16</dim>
					<dim>64</dim>
				</port>
			</input>
			<output>
				<port id="1" names="492" precision="I64">
					<dim>4</dim>
				</port>
			</output>
		</layer>
		<layer id="138" name="4934808/Cast_1105383_const" type="Const" version="opset1">
			<data element_type="i32" offset="63557640" shape="" size="4"/>
			<output>
				<port id="0" names="491" precision="I32"/>
			</output>
		</layer>
		<layer id="139" name="4934808/Cast_2105385_const" type="Const" version="opset1">
			<data element_type="i64" offset="62509056" shape="" size="8"/>
			<output>
				<port id="0" precision="I64"/>
			</output>
		</layer>
		<layer id="140" name="4934808" type="Gather" version="opset1">
			<input>
				<port id="0">
					<dim>4</dim>
				</port>
				<port id="1"/>
				<port id="2"/>
			</input>
			<output>
				<port id="3" names="493" precision="I64"/>
			</output>
		</layer>
		<layer id="141" name="498/Dims/Output_0/Data__const" type="Const" version="opset1">
			<data element_type="i64" offset="62509056" shape="1" size="8"/>
			<output>
				<port id="0" precision="I64">
					<dim>1</dim>
				</port>
			</output>
		</layer>
		<layer id="142" name="498/Unsqueeze" type="Unsqueeze" version="opset1">
			<input>
				<port id="0"/>
				<port id="1">
					<dim>1</dim>
				</port>
			</input>
			<output>
				<port id="2" names="498" precision="I64">
					<dim>1</dim>
				</port>
			</output>
		</layer>
		<layer id="143" name="495" type="ShapeOf" version="opset3">
			<data output_type="i64"/>
			<input>
				<port id="0">
					<dim>1</dim>
					<dim>384</dim>
					<dim>16</dim>
					<dim>64</dim>
				</port>
			</input>
			<output>
				<port id="1" names="495" precision="I64">
					<dim>4</dim>
				</port>
			</output>
		</layer>
		<layer id="144" name="4964814/Cast_1105673_const" type="Const" version="opset1">
			<data element_type="i32" offset="63557644" shape="" size="4"/>
			<output>
				<port id="0" names="494" precision="I32"/>
			</output>
		</layer>
		<layer id="145" name="4964814/Cast_2105675_const" type="Const" version="opset1">
			<data element_type="i64" offset="62509056" shape="" size="8"/>
			<output>
				<port id="0" precision="I64"/>
			</output>
		</layer>
		<layer id="146" name="4964814" type="Gather" version="opset1">
			<input>
				<port id="0">
					<dim>4</dim>
				</port>
				<port id="1"/>
				<port id="2"/>
			</input>
			<output>
				<port id="3" names="496" precision="I64"/>
			</output>
		</layer>
		<layer id="147" name="499/Dims/Output_0/Data__const" type="Const" version="opset1">
			<data element_type="i64" offset="62509056" shape="1" size="8"/>
			<output>
				<port id="0" precision="I64">
					<dim>1</dim>
				</port>
			</output>
		</layer>
		<layer id="148" name="499/Unsqueeze" type="Unsqueeze" version="opset1">
			<input>
				<port id="0"/>
				<port id="1">
					<dim>1</dim>
				</port>
			</input>
			<output>
				<port id="2" names="499" precision="I64">
					<dim>1</dim>
				</port>
			</output>
		</layer>
		<layer id="149" name="500/Unsqueeze/Output_0/Data__const" type="Const" version="opset1">
			<data element_type="i64" offset="69863596" shape="1" size="8"/>
			<output>
				<port id="0" names="500" precision="I64">
					<dim>1</dim>
				</port>
			</output>
		</layer>
		<layer id="150" name="501" type="Concat" version="opset1">
			<data axis="0"/>
			<input>
				<port id="0">
					<dim>1</dim>
				</port>
				<port id="1">
					<dim>1</dim>
				</port>
				<port id="2">
					<dim>1</dim>
				</port>
			</input>
			<output>
				<port id="3" names="501" precision="I64">
					<dim>3</dim>
				</port>
			</output>
		</layer>
		<layer id="151" name="502" type="Reshape" version="opset1">
			<data special_zero="true"/>
			<input>
				<port id="0">
					<dim>1</dim>
					<dim>384</dim>
					<dim>16</dim>
					<dim>64</dim>
				</port>
				<port id="1">
					<dim>3</dim>
				</port>
			</input>
			<output>
				<port id="2" names="502" precision="FP16">
					<dim>1</dim>
					<dim>384</dim>
					<dim>1024</dim>
				</port>
			</output>
		</layer>
		<layer id="152" name="504/1_port_transpose70321_const" type="Const" version="opset1">
			<data element_type="f16" offset="69863604" shape="1024,1024" size="2097152"/>
			<output>
				<port id="0" names="503" precision="FP16">
					<dim>1024</dim>
					<dim>1024</dim>
				</port>
			</output>
		</layer>
		<layer id="153" name="504" type="MatMul" version="opset1">
			<data transpose_a="false" transpose_b="true"/>
			<input>
				<port id="0">
					<dim>1</dim>
					<dim>384</dim>
					<dim>1024</dim>
				</port>
				<port id="1">
					<dim>1024</dim>
					<dim>1024</dim>
				</port>
			</input>
			<output>
				<port id="2" names="504" precision="FP16">
					<dim>1</dim>
					<dim>384</dim>
					<dim>1024</dim>
				</port>
			</output>
		</layer>
		<layer id="154" name="bert.encoder.layer.0.attention.output.dense.bias/EltwiseUnsqueeze46077_const" type="Const" version="opset1">
			<data element_type="f16" offset="71960756" shape="1,1,1024" size="2048"/>
			<output>
				<port id="0" names="bert.encoder.layer.0.attention.output.dense.bias" precision="FP16">
					<dim>1</dim>
					<dim>1</dim>
					<dim>1024</dim>
				</port>
			</output>
		</layer>
		<layer id="155" name="505" type="Add" version="opset1">
			<data auto_broadcast="numpy"/>
			<input>
				<port id="0">
					<dim>1</dim>
					<dim>384</dim>
					<dim>1024</dim>
				</port>
				<port id="1">
					<dim>1</dim>
					<dim>1</dim>
					<dim>1024</dim>
				</port>
			</input>
			<output>
				<port id="2" names="505" precision="FP16">
					<dim>1</dim>
					<dim>384</dim>
					<dim>1024</dim>
				</port>
			</output>
		</layer>
		<layer id="156" name="506" type="Add" version="opset1">
			<data auto_broadcast="numpy"/>
			<input>
				<port id="0">
					<dim>1</dim>
					<dim>384</dim>
					<dim>1024</dim>
				</port>
				<port id="1">
					<dim>1</dim>
					<dim>384</dim>
					<dim>1024</dim>
				</port>
			</input>
			<output>
				<port id="2" names="506" precision="FP16">
					<dim>1</dim>
					<dim>384</dim>
					<dim>1024</dim>
				</port>
			</output>
		</layer>
		<layer id="157" name="4534_input_port_1/value/Output_0/Data__const" type="Const" version="opset1">
			<data element_type="i64" offset="63561756" shape="1" size="8"/>
			<output>
				<port id="0" precision="I64">
					<dim>1</dim>
				</port>
			</output>
		</layer>
		<layer id="158" name="515" type="MVN" version="opset6">
			<data eps="9.999999960041972e-13" eps_mode="inside_sqrt" normalize_variance="true"/>
			<input>
				<port id="0">
					<dim>1</dim>
					<dim>384</dim>
					<dim>1024</dim>
				</port>
				<port id="1">
					<dim>1</dim>
				</port>
			</input>
			<output>
				<port id="2" names="515" precision="FP16">
					<dim>1</dim>
					<dim>384</dim>
					<dim>1024</dim>
				</port>
			</output>
		</layer>
		<layer id="159" name="bert.encoder.layer.0.attention.output.LayerNorm.weight/EltwiseUnsqueeze46081_const" type="Const" version="opset1">
			<data element_type="f16" offset="71962804" shape="1,1,1024" size="2048"/>
			<output>
				<port id="0" names="bert.encoder.layer.0.attention.output.LayerNorm.weight" precision="FP16">
					<dim>1</dim>
					<dim>1</dim>
					<dim>1024</dim>
				</port>
			</output>
		</layer>
		<layer id="160" name="516" type="Multiply" version="opset1">
			<data auto_broadcast="numpy"/>
			<input>
				<port id="0">
					<dim>1</dim>
					<dim>384</dim>
					<dim>1024</dim>
				</port>
				<port id="1">
					<dim>1</dim>
					<dim>1</dim>
					<dim>1024</dim>
				</port>
			</input>
			<output>
				<port id="2" names="516" precision="FP16">
					<dim>1</dim>
					<dim>384</dim>
					<dim>1024</dim>
				</port>
			</output>
		</layer>
		<layer id="161" name="bert.encoder.layer.0.attention.output.LayerNorm.bias/EltwiseUnsqueeze46085_const" type="Const" version="opset1">
			<data element_type="f16" offset="71964852" shape="1,1,1024" size="2048"/>
			<output>
				<port id="0" names="bert.encoder.layer.0.attention.output.LayerNorm.bias" precision="FP16">
					<dim>1</dim>
					<dim>1</dim>
					<dim>1024</dim>
				</port>
			</output>
		</layer>
		<layer id="162" name="517" type="Add" version="opset1">
			<data auto_broadcast="numpy"/>
			<input>
				<port id="0">
					<dim>1</dim>
					<dim>384</dim>
					<dim>1024</dim>
				</port>
				<port id="1">
					<dim>1</dim>
					<dim>1</dim>
					<dim>1024</dim>
				</port>
			</input>
			<output>
				<port id="2" names="517" precision="FP16">
					<dim>1</dim>
					<dim>384</dim>
					<dim>1024</dim>
				</port>
			</output>
		</layer>
		<layer id="163" name="519/1_port_transpose70617_const" type="Const" version="opset1">
			<data element_type="f16" offset="71966900" shape="4096,1024" size="8388608"/>
			<output>
				<port id="0" names="518" precision="FP16">
					<dim>4096</dim>
					<dim>1024</dim>
				</port>
			</output>
		</layer>
		<layer id="164" name="519" type="MatMul" version="opset1">
			<data transpose_a="false" transpose_b="true"/>
			<input>
				<port id="0">
					<dim>1</dim>
					<dim>384</dim>
					<dim>1024</dim>
				</port>
				<port id="1">
					<dim>4096</dim>
					<dim>1024</dim>
				</port>
			</input>
			<output>
				<port id="2" names="519" precision="FP16">
					<dim>1</dim>
					<dim>384</dim>
					<dim>4096</dim>
				</port>
			</output>
		</layer>
		<layer id="165" name="bert.encoder.layer.0.intermediate.dense.bias/EltwiseUnsqueeze46089_const" type="Const" version="opset1">
			<data element_type="f16" offset="80355508" shape="1,1,4096" size="8192"/>
			<output>
				<port id="0" names="bert.encoder.layer.0.intermediate.dense.bias" precision="FP16">
					<dim>1</dim>
					<dim>1</dim>
					<dim>4096</dim>
				</port>
			</output>
		</layer>
		<layer id="166" name="520" type="Add" version="opset1">
			<data auto_broadcast="numpy"/>
			<input>
				<port id="0">
					<dim>1</dim>
					<dim>384</dim>
					<dim>4096</dim>
				</port>
				<port id="1">
					<dim>1</dim>
					<dim>1</dim>
					<dim>4096</dim>
				</port>
			</input>
			<output>
				<port id="2" names="520" precision="FP16">
					<dim>1</dim>
					<dim>384</dim>
					<dim>4096</dim>
				</port>
			</output>
		</layer>
		<layer id="167" name="528" type="Gelu" version="opset2">
			<input>
				<port id="0">
					<dim>1</dim>
					<dim>384</dim>
					<dim>4096</dim>
				</port>
			</input>
			<output>
				<port id="1" names="528" precision="FP16">
					<dim>1</dim>
					<dim>384</dim>
					<dim>4096</dim>
				</port>
			</output>
		</layer>
		<layer id="168" name="530/1_port_transpose70505_const" type="Const" version="opset1">
			<data element_type="f16" offset="80363700" shape="1024,4096" size="8388608"/>
			<output>
				<port id="0" names="529" precision="FP16">
					<dim>1024</dim>
					<dim>4096</dim>
				</port>
			</output>
		</layer>
		<layer id="169" name="530" type="MatMul" version="opset1">
			<data transpose_a="false" transpose_b="true"/>
			<input>
				<port id="0">
					<dim>1</dim>
					<dim>384</dim>
					<dim>4096</dim>
				</port>
				<port id="1">
					<dim>1024</dim>
					<dim>4096</dim>
				</port>
			</input>
			<output>
				<port id="2" names="530" precision="FP16">
					<dim>1</dim>
					<dim>384</dim>
					<dim>1024</dim>
				</port>
			</output>
		</layer>
		<layer id="170" name="bert.encoder.layer.0.output.dense.bias/EltwiseUnsqueeze46093_const" type="Const" version="opset1">
			<data element_type="f16" offset="88752308" shape="1,1,1024" size="2048"/>
			<output>
				<port id="0" names="bert.encoder.layer.0.output.dense.bias" precision="FP16">
					<dim>1</dim>
					<dim>1</dim>
					<dim>1024</dim>
				</port>
			</output>
		</layer>
		<layer id="171" name="531" type="Add" version="opset1">
			<data auto_broadcast="numpy"/>
			<input>
				<port id="0">
					<dim>1</dim>
					<dim>384</dim>
					<dim>1024</dim>
				</port>
				<port id="1">
					<dim>1</dim>
					<dim>1</dim>
					<dim>1024</dim>
				</port>
			</input>
			<output>
				<port id="2" names="531" precision="FP16">
					<dim>1</dim>
					<dim>384</dim>
					<dim>1024</dim>
				</port>
			</output>
		</layer>
		<layer id="172" name="532" type="Add" version="opset1">
			<data auto_broadcast="numpy"/>
			<input>
				<port id="0">
					<dim>1</dim>
					<dim>384</dim>
					<dim>1024</dim>
				</port>
				<port id="1">
					<dim>1</dim>
					<dim>384</dim>
					<dim>1024</dim>
				</port>
			</input>
			<output>
				<port id="2" names="532" precision="FP16">
					<dim>1</dim>
					<dim>384</dim>
					<dim>1024</dim>
				</port>
			</output>
		</layer>
		<layer id="173" name="4512_input_port_1/value/Output_0/Data__const" type="Const" version="opset1">
			<data element_type="i64" offset="63561756" shape="1" size="8"/>
			<output>
				<port id="0" precision="I64">
					<dim>1</dim>
				</port>
			</output>
		</layer>
		<layer id="174" name="541" type="MVN" version="opset6">
			<data eps="9.999999960041972e-13" eps_mode="inside_sqrt" normalize_variance="true"/>
			<input>
				<port id="0">
					<dim>1</dim>
					<dim>384</dim>
					<dim>1024</dim>
				</port>
				<port id="1">
					<dim>1</dim>
				</port>
			</input>
			<output>
				<port id="2" names="541" precision="FP16">
					<dim>1</dim>
					<dim>384</dim>
					<dim>1024</dim>
				</port>
			</output>
		</layer>
		<layer id="175" name="bert.encoder.layer.0.output.LayerNorm.weight/EltwiseUnsqueeze46097_const" type="Const" version="opset1">
			<data element_type="f16" offset="88754356" shape="1,1,1024" size="2048"/>
			<output>
				<port id="0" names="bert.encoder.layer.0.output.LayerNorm.weight" precision="FP16">
					<dim>1</dim>
					<dim>1</dim>
					<dim>1024</dim>
				</port>
			</output>
		</layer>
		<layer id="176" name="542" type="Multiply" version="opset1">
			<data auto_broadcast="numpy"/>
			<input>
				<port id="0">
					<dim>1</dim>
					<dim>384</dim>
					<dim>1024</dim>
				</port>
				<port id="1">
					<dim>1</dim>
					<dim>1</dim>
					<dim>1024</dim>
				</port>
			</input>
			<output>
				<port id="2" names="542" precision="FP16">
					<dim>1</dim>
					<dim>384</dim>
					<dim>1024</dim>
				</port>
			</output>
		</layer>
		<layer id="177" name="bert.encoder.layer.0.output.LayerNorm.bias/EltwiseUnsqueeze46101_const" type="Const" version="opset1">
			<data element_type="f16" offset="88756404" shape="1,1,1024" size="2048"/>
			<output>
				<port id="0" names="bert.encoder.layer.0.output.LayerNorm.bias" precision="FP16">
					<dim>1</dim>
					<dim>1</dim>
					<dim>1024</dim>
				</port>
			</output>
		</layer>
		<layer id="178" name="543" type="Add" version="opset1">
			<data auto_broadcast="numpy"/>
			<input>
				<port id="0">
					<dim>1</dim>
					<dim>384</dim>
					<dim>1024</dim>
				</port>
				<port id="1">
					<dim>1</dim>
					<dim>1</dim>
					<dim>1024</dim>
				</port>
			</input>
			<output>
				<port id="2" names="543" precision="FP16">
					<dim>1</dim>
					<dim>384</dim>
					<dim>1024</dim>
				</port>
			</output>
		</layer>
		<layer id="179" name="545/1_port_transpose70113_const" type="Const" version="opset1">
			<data element_type="f16" offset="88758452" shape="1024,1024" size="2097152"/>
			<output>
				<port id="0" names="544" precision="FP16">
					<dim>1024</dim>
					<dim>1024</dim>
				</port>
			</output>
		</layer>
		<layer id="180" name="545" type="MatMul" version="opset1">
			<data transpose_a="false" transpose_b="true"/>
			<input>
				<port id="0">
					<dim>1</dim>
					<dim>384</dim>
					<dim>1024</dim>
				</port>
				<port id="1">
					<dim>1024</dim>
					<dim>1024</dim>
				</port>
			</input>
			<output>
				<port id="2" names="545" precision="FP16">
					<dim>1</dim>
					<dim>384</dim>
					<dim>1024</dim>
				</port>
			</output>
		</layer>
		<layer id="181" name="bert.encoder.layer.1.attention.self.query.bias/EltwiseUnsqueeze46105_const" type="Const" version="opset1">
			<data element_type="f16" offset="90855604" shape="1,1,1024" size="2048"/>
			<output>
				<port id="0" names="bert.encoder.layer.1.attention.self.query.bias" precision="FP16">
					<dim>1</dim>
					<dim>1</dim>
					<dim>1024</dim>
				</port>
			</output>
		</layer>
		<layer id="182" name="546" type="Add" version="opset1">
			<data auto_broadcast="numpy"/>
			<input>
				<port id="0">
					<dim>1</dim>
					<dim>384</dim>
					<dim>1024</dim>
				</port>
				<port id="1">
					<dim>1</dim>
					<dim>1</dim>
					<dim>1024</dim>
				</port>
			</input>
			<output>
				<port id="2" names="546" precision="FP16">
					<dim>1</dim>
					<dim>384</dim>
					<dim>1024</dim>
				</port>
			</output>
		</layer>
		<layer id="183" name="554" type="ShapeOf" version="opset3">
			<data output_type="i64"/>
			<input>
				<port id="0">
					<dim>1</dim>
					<dim>384</dim>
					<dim>1024</dim>
				</port>
			</input>
			<output>
				<port id="1" names="554" precision="I64">
					<dim>3</dim>
				</port>
			</output>
		</layer>
		<layer id="184" name="5555070/Cast_1105095_const" type="Const" version="opset1">
			<data element_type="i32" offset="63557640" shape="" size="4"/>
			<output>
				<port id="0" names="553" precision="I32"/>
			</output>
		</layer>
		<layer id="185" name="5555070/Cast_2105097_const" type="Const" version="opset1">
			<data element_type="i64" offset="62509056" shape="" size="8"/>
			<output>
				<port id="0" precision="I64"/>
			</output>
		</layer>
		<layer id="186" name="5555070" type="Gather" version="opset1">
			<input>
				<port id="0">
					<dim>3</dim>
				</port>
				<port id="1"/>
				<port id="2"/>
			</input>
			<output>
				<port id="3" names="555" precision="I64"/>
			</output>
		</layer>
		<layer id="187" name="561/Dims/Output_0/Data__const" type="Const" version="opset1">
			<data element_type="i64" offset="62509056" shape="1" size="8"/>
			<output>
				<port id="0" precision="I64">
					<dim>1</dim>
				</port>
			</output>
		</layer>
		<layer id="188" name="561/Unsqueeze" type="Unsqueeze" version="opset1">
			<input>
				<port id="0"/>
				<port id="1">
					<dim>1</dim>
				</port>
			</input>
			<output>
				<port id="2" names="561" precision="I64">
					<dim>1</dim>
				</port>
			</output>
		</layer>
		<layer id="189" name="557" type="ShapeOf" version="opset3">
			<data output_type="i64"/>
			<input>
				<port id="0">
					<dim>1</dim>
					<dim>384</dim>
					<dim>1024</dim>
				</port>
			</input>
			<output>
				<port id="1" names="557" precision="I64">
					<dim>3</dim>
				</port>
			</output>
		</layer>
		<layer id="190" name="5584798/Cast_1105885_const" type="Const" version="opset1">
			<data element_type="i32" offset="63557644" shape="" size="4"/>
			<output>
				<port id="0" names="556" precision="I32"/>
			</output>
		</layer>
		<layer id="191" name="5584798/Cast_2105887_const" type="Const" version="opset1">
			<data element_type="i64" offset="62509056" shape="" size="8"/>
			<output>
				<port id="0" precision="I64"/>
			</output>
		</layer>
		<layer id="192" name="5584798" type="Gather" version="opset1">
			<input>
				<port id="0">
					<dim>3</dim>
				</port>
				<port id="1"/>
				<port id="2"/>
			</input>
			<output>
				<port id="3" names="558" precision="I64"/>
			</output>
		</layer>
		<layer id="193" name="562/Dims/Output_0/Data__const" type="Const" version="opset1">
			<data element_type="i64" offset="62509056" shape="1" size="8"/>
			<output>
				<port id="0" precision="I64">
					<dim>1</dim>
				</port>
			</output>
		</layer>
		<layer id="194" name="562/Unsqueeze" type="Unsqueeze" version="opset1">
			<input>
				<port id="0"/>
				<port id="1">
					<dim>1</dim>
				</port>
			</input>
			<output>
				<port id="2" names="562" precision="I64">
					<dim>1</dim>
				</port>
			</output>
		</layer>
		<layer id="195" name="563/Unsqueeze/Output_0/Data__const" type="Const" version="opset1">
			<data element_type="i64" offset="65665060" shape="1" size="8"/>
			<output>
				<port id="0" names="563" precision="I64">
					<dim>1</dim>
				</port>
			</output>
		</layer>
		<layer id="196" name="564/Unsqueeze/Output_0/Data__const" type="Const" version="opset1">
			<data element_type="i64" offset="65665068" shape="1" size="8"/>
			<output>
				<port id="0" names="564" precision="I64">
					<dim>1</dim>
				</port>
			</output>
		</layer>
		<layer id="197" name="565" type="Concat" version="opset1">
			<data axis="0"/>
			<input>
				<port id="0">
					<dim>1</dim>
				</port>
				<port id="1">
					<dim>1</dim>
				</port>
				<port id="2">
					<dim>1</dim>
				</port>
				<port id="3">
					<dim>1</dim>
				</port>
			</input>
			<output>
				<port id="4" names="565" precision="I64">
					<dim>4</dim>
				</port>
			</output>
		</layer>
		<layer id="198" name="566" type="Reshape" version="opset1">
			<data special_zero="true"/>
			<input>
				<port id="0">
					<dim>1</dim>
					<dim>384</dim>
					<dim>1024</dim>
				</port>
				<port id="1">
					<dim>4</dim>
				</port>
			</input>
			<output>
				<port id="2" names="566" precision="FP16">
					<dim>1</dim>
					<dim>384</dim>
					<dim>16</dim>
					<dim>64</dim>
				</port>
			</output>
		</layer>
		<layer id="199" name="567/Cast_1105949_const" type="Const" version="opset1">
			<data element_type="i64" offset="65665076" shape="4" size="32"/>
			<output>
				<port id="0" precision="I64">
					<dim>4</dim>
				</port>
			</output>
		</layer>
		<layer id="200" name="567" type="Transpose" version="opset1">
			<input>
				<port id="0">
					<dim>1</dim>
					<dim>384</dim>
					<dim>16</dim>
					<dim>64</dim>
				</port>
				<port id="1">
					<dim>4</dim>
				</port>
			</input>
			<output>
				<port id="2" names="567" precision="FP16">
					<dim>1</dim>
					<dim>16</dim>
					<dim>384</dim>
					<dim>64</dim>
				</port>
			</output>
		</layer>
		<layer id="201" name="548/1_port_transpose70621_const" type="Const" version="opset1">
			<data element_type="f16" offset="90857652" shape="1024,1024" size="2097152"/>
			<output>
				<port id="0" names="547" precision="FP16">
					<dim>1024</dim>
					<dim>1024</dim>
				</port>
			</output>
		</layer>
		<layer id="202" name="548" type="MatMul" version="opset1">
			<data transpose_a="false" transpose_b="true"/>
			<input>
				<port id="0">
					<dim>1</dim>
					<dim>384</dim>
					<dim>1024</dim>
				</port>
				<port id="1">
					<dim>1024</dim>
					<dim>1024</dim>
				</port>
			</input>
			<output>
				<port id="2" names="548" precision="FP16">
					<dim>1</dim>
					<dim>384</dim>
					<dim>1024</dim>
				</port>
			</output>
		</layer>
		<layer id="203" name="bert.encoder.layer.1.attention.self.key.bias/EltwiseUnsqueeze46109_const" type="Const" version="opset1">
			<data element_type="f16" offset="92954804" shape="1,1,1024" size="2048"/>
			<output>
				<port id="0" names="bert.encoder.layer.1.attention.self.key.bias" precision="FP16">
					<dim>1</dim>
					<dim>1</dim>
					<dim>1024</dim>
				</port>
			</output>
		</layer>
		<layer id="204" name="549" type="Add" version="opset1">
			<data auto_broadcast="numpy"/>
			<input>
				<port id="0">
					<dim>1</dim>
					<dim>384</dim>
					<dim>1024</dim>
				</port>
				<port id="1">
					<dim>1</dim>
					<dim>1</dim>
					<dim>1024</dim>
				</port>
			</input>
			<output>
				<port id="2" names="549" precision="FP16">
					<dim>1</dim>
					<dim>384</dim>
					<dim>1024</dim>
				</port>
			</output>
		</layer>
		<layer id="205" name="569" type="ShapeOf" version="opset3">
			<data output_type="i64"/>
			<input>
				<port id="0">
					<dim>1</dim>
					<dim>384</dim>
					<dim>1024</dim>
				</port>
			</input>
			<output>
				<port id="1" names="569" precision="I64">
					<dim>3</dim>
				</port>
			</output>
		</layer>
		<layer id="206" name="5705180/Cast_1104981_const" type="Const" version="opset1">
			<data element_type="i32" offset="63557640" shape="" size="4"/>
			<output>
				<port id="0" names="568" precision="I32"/>
			</output>
		</layer>
		<layer id="207" name="5705180/Cast_2104983_const" type="Const" version="opset1">
			<data element_type="i64" offset="62509056" shape="" size="8"/>
			<output>
				<port id="0" precision="I64"/>
			</output>
		</layer>
		<layer id="208" name="5705180" type="Gather" version="opset1">
			<input>
				<port id="0">
					<dim>3</dim>
				</port>
				<port id="1"/>
				<port id="2"/>
			</input>
			<output>
				<port id="3" names="570" precision="I64"/>
			</output>
		</layer>
		<layer id="209" name="576/Dims/Output_0/Data__const" type="Const" version="opset1">
			<data element_type="i64" offset="62509056" shape="1" size="8"/>
			<output>
				<port id="0" precision="I64">
					<dim>1</dim>
				</port>
			</output>
		</layer>
		<layer id="210" name="576/Unsqueeze" type="Unsqueeze" version="opset1">
			<input>
				<port id="0"/>
				<port id="1">
					<dim>1</dim>
				</port>
			</input>
			<output>
				<port id="2" names="576" precision="I64">
					<dim>1</dim>
				</port>
			</output>
		</layer>
		<layer id="211" name="572" type="ShapeOf" version="opset3">
			<data output_type="i64"/>
			<input>
				<port id="0">
					<dim>1</dim>
					<dim>384</dim>
					<dim>1024</dim>
				</port>
			</input>
			<output>
				<port id="1" names="572" precision="I64">
					<dim>3</dim>
				</port>
			</output>
		</layer>
		<layer id="212" name="5734890/Cast_1105481_const" type="Const" version="opset1">
			<data element_type="i32" offset="63557644" shape="" size="4"/>
			<output>
				<port id="0" names="571" precision="I32"/>
			</output>
		</layer>
		<layer id="213" name="5734890/Cast_2105483_const" type="Const" version="opset1">
			<data element_type="i64" offset="62509056" shape="" size="8"/>
			<output>
				<port id="0" precision="I64"/>
			</output>
		</layer>
		<layer id="214" name="5734890" type="Gather" version="opset1">
			<input>
				<port id="0">
					<dim>3</dim>
				</port>
				<port id="1"/>
				<port id="2"/>
			</input>
			<output>
				<port id="3" names="573" precision="I64"/>
			</output>
		</layer>
		<layer id="215" name="577/Dims/Output_0/Data__const" type="Const" version="opset1">
			<data element_type="i64" offset="62509056" shape="1" size="8"/>
			<output>
				<port id="0" precision="I64">
					<dim>1</dim>
				</port>
			</output>
		</layer>
		<layer id="216" name="577/Unsqueeze" type="Unsqueeze" version="opset1">
			<input>
				<port id="0"/>
				<port id="1">
					<dim>1</dim>
				</port>
			</input>
			<output>
				<port id="2" names="577" precision="I64">
					<dim>1</dim>
				</port>
			</output>
		</layer>
		<layer id="217" name="578/Unsqueeze/Output_0/Data__const" type="Const" version="opset1">
			<data element_type="i64" offset="65665060" shape="1" size="8"/>
			<output>
				<port id="0" names="578" precision="I64">
					<dim>1</dim>
				</port>
			</output>
		</layer>
		<layer id="218" name="579/Unsqueeze/Output_0/Data__const" type="Const" version="opset1">
			<data element_type="i64" offset="65665068" shape="1" size="8"/>
			<output>
				<port id="0" names="579" precision="I64">
					<dim>1</dim>
				</port>
			</output>
		</layer>
		<layer id="219" name="580" type="Concat" version="opset1">
			<data axis="0"/>
			<input>
				<port id="0">
					<dim>1</dim>
				</port>
				<port id="1">
					<dim>1</dim>
				</port>
				<port id="2">
					<dim>1</dim>
				</port>
				<port id="3">
					<dim>1</dim>
				</port>
			</input>
			<output>
				<port id="4" names="580" precision="I64">
					<dim>4</dim>
				</port>
			</output>
		</layer>
		<layer id="220" name="581" type="Reshape" version="opset1">
			<data special_zero="true"/>
			<input>
				<port id="0">
					<dim>1</dim>
					<dim>384</dim>
					<dim>1024</dim>
				</port>
				<port id="1">
					<dim>4</dim>
				</port>
			</input>
			<output>
				<port id="2" names="581" precision="FP16">
					<dim>1</dim>
					<dim>384</dim>
					<dim>16</dim>
					<dim>64</dim>
				</port>
			</output>
		</layer>
		<layer id="221" name="597/Cast_1104835_const" type="Const" version="opset1">
			<data element_type="i64" offset="67764308" shape="4" size="32"/>
			<output>
				<port id="0" precision="I64">
					<dim>4</dim>
				</port>
			</output>
		</layer>
		<layer id="222" name="597" type="Transpose" version="opset1">
			<input>
				<port id="0">
					<dim>1</dim>
					<dim>384</dim>
					<dim>16</dim>
					<dim>64</dim>
				</port>
				<port id="1">
					<dim>4</dim>
				</port>
			</input>
			<output>
				<port id="2" precision="FP16">
					<dim>1</dim>
					<dim>16</dim>
					<dim>64</dim>
					<dim>384</dim>
				</port>
			</output>
		</layer>
		<layer id="223" name="600_copy/const4855854313/EltwiseUnsqueeze54343_const" type="Const" version="opset1">
			<data element_type="f16" offset="67764340" shape="1,16,1,1" size="32"/>
			<output>
				<port id="0" precision="FP16">
					<dim>1</dim>
					<dim>16</dim>
					<dim>1</dim>
					<dim>1</dim>
				</port>
			</output>
		</layer>
		<layer id="224" name="600_copy" type="Multiply" version="opset1">
			<data auto_broadcast="numpy"/>
			<input>
				<port id="0">
					<dim>1</dim>
					<dim>16</dim>
					<dim>64</dim>
					<dim>384</dim>
				</port>
				<port id="1">
					<dim>1</dim>
					<dim>16</dim>
					<dim>1</dim>
					<dim>1</dim>
				</port>
			</input>
			<output>
				<port id="2" names="597" precision="FP16">
					<dim>1</dim>
					<dim>16</dim>
					<dim>64</dim>
					<dim>384</dim>
				</port>
			</output>
		</layer>
		<layer id="225" name="598" type="MatMul" version="opset1">
			<data transpose_a="false" transpose_b="false"/>
			<input>
				<port id="0">
					<dim>1</dim>
					<dim>16</dim>
					<dim>384</dim>
					<dim>64</dim>
				</port>
				<port id="1">
					<dim>1</dim>
					<dim>16</dim>
					<dim>64</dim>
					<dim>384</dim>
				</port>
			</input>
			<output>
				<port id="2" names="600" precision="FP16">
					<dim>1</dim>
					<dim>16</dim>
					<dim>384</dim>
					<dim>384</dim>
				</port>
			</output>
		</layer>
		<layer id="226" name="601" type="Add" version="opset1">
			<data auto_broadcast="numpy"/>
			<input>
				<port id="0">
					<dim>1</dim>
					<dim>16</dim>
					<dim>384</dim>
					<dim>384</dim>
				</port>
				<port id="1">
					<dim>1</dim>
					<dim>1</dim>
					<dim>1</dim>
					<dim>384</dim>
				</port>
			</input>
			<output>
				<port id="2" names="601" precision="FP16">
					<dim>1</dim>
					<dim>16</dim>
					<dim>384</dim>
					<dim>384</dim>
				</port>
			</output>
		</layer>
		<layer id="227" name="602/FlattenONNX_/input_shape" type="ShapeOf" version="opset3">
			<data output_type="i64"/>
			<input>
				<port id="0">
					<dim>1</dim>
					<dim>16</dim>
					<dim>384</dim>
					<dim>384</dim>
				</port>
			</input>
			<output>
				<port id="1" precision="I64">
					<dim>4</dim>
				</port>
			</output>
		</layer>
		<layer id="228" name="602/FlattenONNX_/input_shape/Gather/Cast_1105513_const" type="Const" version="opset1">
			<data element_type="i32" offset="67764384" shape="3" size="12"/>
			<output>
				<port id="0" precision="I32">
					<dim>3</dim>
				</port>
			</output>
		</layer>
		<layer id="229" name="602/FlattenONNX_/input_shape/Gather/Cast_2105515_const" type="Const" version="opset1">
			<data element_type="i64" offset="62509056" shape="" size="8"/>
			<output>
				<port id="0" precision="I64"/>
			</output>
		</layer>
		<layer id="230" name="602/FlattenONNX_/input_shape/Gather" type="Gather" version="opset1">
			<input>
				<port id="0">
					<dim>4</dim>
				</port>
				<port id="1">
					<dim>3</dim>
				</port>
				<port id="2"/>
			</input>
			<output>
				<port id="3" precision="I64">
					<dim>3</dim>
				</port>
			</output>
		</layer>
		<layer id="231" name="602/FlattenONNX_/first_dims/Cast_1105121_const" type="Const" version="opset1">
			<data element_type="i64" offset="62509056" shape="1" size="8"/>
			<output>
				<port id="0" precision="I64">
					<dim>1</dim>
				</port>
			</output>
		</layer>
		<layer id="232" name="602/FlattenONNX_/first_dims" type="ReduceProd" version="opset1">
			<data keep_dims="true"/>
			<input>
				<port id="0">
					<dim>3</dim>
				</port>
				<port id="1">
					<dim>1</dim>
				</port>
			</input>
			<output>
				<port id="2" precision="I64">
					<dim>1</dim>
				</port>
			</output>
		</layer>
		<layer id="233" name="602/FlattenONNX_/second_dims/Output_0/Data__const" type="Const" version="opset1">
			<data element_type="i64" offset="63561756" shape="1" size="8"/>
			<output>
				<port id="0" precision="I64">
					<dim>1</dim>
				</port>
			</output>
		</layer>
		<layer id="234" name="602/FlattenONNX_/first_dims/shapes_concat" type="Concat" version="opset1">
			<data axis="0"/>
			<input>
				<port id="0">
					<dim>1</dim>
				</port>
				<port id="1">
					<dim>1</dim>
				</port>
			</input>
			<output>
				<port id="2" precision="I64">
					<dim>2</dim>
				</port>
			</output>
		</layer>
		<layer id="235" name="602/FlattenONNX_/Reshape" type="Reshape" version="opset1">
			<data special_zero="true"/>
			<input>
				<port id="0">
					<dim>1</dim>
					<dim>16</dim>
					<dim>384</dim>
					<dim>384</dim>
				</port>
				<port id="1">
					<dim>2</dim>
				</port>
			</input>
			<output>
				<port id="2" precision="FP16">
					<dim>6144</dim>
					<dim>384</dim>
				</port>
			</output>
		</layer>
		<layer id="236" name="602/Softmax_" type="SoftMax" version="opset1">
			<data axis="1"/>
			<input>
				<port id="0">
					<dim>6144</dim>
					<dim>384</dim>
				</port>
			</input>
			<output>
				<port id="1" precision="FP16">
					<dim>6144</dim>
					<dim>384</dim>
				</port>
			</output>
		</layer>
		<layer id="237" name="602/ShapeOf_" type="ShapeOf" version="opset3">
			<data output_type="i64"/>
			<input>
				<port id="0">
					<dim>1</dim>
					<dim>16</dim>
					<dim>384</dim>
					<dim>384</dim>
				</port>
			</input>
			<output>
				<port id="1" precision="I64">
					<dim>4</dim>
				</port>
			</output>
		</layer>
		<layer id="238" name="602" type="Reshape" version="opset1">
			<data special_zero="true"/>
			<input>
				<port id="0">
					<dim>6144</dim>
					<dim>384</dim>
				</port>
				<port id="1">
					<dim>4</dim>
				</port>
			</input>
			<output>
				<port id="2" names="602" precision="FP16">
					<dim>1</dim>
					<dim>16</dim>
					<dim>384</dim>
					<dim>384</dim>
				</port>
			</output>
		</layer>
		<layer id="239" name="551/1_port_transpose70261_const" type="Const" version="opset1">
			<data element_type="f16" offset="92956852" shape="1024,1024" size="2097152"/>
			<output>
				<port id="0" names="550" precision="FP16">
					<dim>1024</dim>
					<dim>1024</dim>
				</port>
			</output>
		</layer>
		<layer id="240" name="551" type="MatMul" version="opset1">
			<data transpose_a="false" transpose_b="true"/>
			<input>
				<port id="0">
					<dim>1</dim>
					<dim>384</dim>
					<dim>1024</dim>
				</port>
				<port id="1">
					<dim>1024</dim>
					<dim>1024</dim>
				</port>
			</input>
			<output>
				<port id="2" names="551" precision="FP16">
					<dim>1</dim>
					<dim>384</dim>
					<dim>1024</dim>
				</port>
			</output>
		</layer>
		<layer id="241" name="bert.encoder.layer.1.attention.self.value.bias/EltwiseUnsqueeze46113_const" type="Const" version="opset1">
			<data element_type="f16" offset="95054004" shape="1,1,1024" size="2048"/>
			<output>
				<port id="0" names="bert.encoder.layer.1.attention.self.value.bias" precision="FP16">
					<dim>1</dim>
					<dim>1</dim>
					<dim>1024</dim>
				</port>
			</output>
		</layer>
		<layer id="242" name="552" type="Add" version="opset1">
			<data auto_broadcast="numpy"/>
			<input>
				<port id="0">
					<dim>1</dim>
					<dim>384</dim>
					<dim>1024</dim>
				</port>
				<port id="1">
					<dim>1</dim>
					<dim>1</dim>
					<dim>1024</dim>
				</port>
			</input>
			<output>
				<port id="2" names="552" precision="FP16">
					<dim>1</dim>
					<dim>384</dim>
					<dim>1024</dim>
				</port>
			</output>
		</layer>
		<layer id="243" name="583" type="ShapeOf" version="opset3">
			<data output_type="i64"/>
			<input>
				<port id="0">
					<dim>1</dim>
					<dim>384</dim>
					<dim>1024</dim>
				</port>
			</input>
			<output>
				<port id="1" names="583" precision="I64">
					<dim>3</dim>
				</port>
			</output>
		</layer>
		<layer id="244" name="5844990/Cast_1105055_const" type="Const" version="opset1">
			<data element_type="i32" offset="63557640" shape="" size="4"/>
			<output>
				<port id="0" names="582" precision="I32"/>
			</output>
		</layer>
		<layer id="245" name="5844990/Cast_2105057_const" type="Const" version="opset1">
			<data element_type="i64" offset="62509056" shape="" size="8"/>
			<output>
				<port id="0" precision="I64"/>
			</output>
		</layer>
		<layer id="246" name="5844990" type="Gather" version="opset1">
			<input>
				<port id="0">
					<dim>3</dim>
				</port>
				<port id="1"/>
				<port id="2"/>
			</input>
			<output>
				<port id="3" names="584" precision="I64"/>
			</output>
		</layer>
		<layer id="247" name="590/Dims/Output_0/Data__const" type="Const" version="opset1">
			<data element_type="i64" offset="62509056" shape="1" size="8"/>
			<output>
				<port id="0" precision="I64">
					<dim>1</dim>
				</port>
			</output>
		</layer>
		<layer id="248" name="590/Unsqueeze" type="Unsqueeze" version="opset1">
			<input>
				<port id="0"/>
				<port id="1">
					<dim>1</dim>
				</port>
			</input>
			<output>
				<port id="2" names="590" precision="I64">
					<dim>1</dim>
				</port>
			</output>
		</layer>
		<layer id="249" name="586" type="ShapeOf" version="opset3">
			<data output_type="i64"/>
			<input>
				<port id="0">
					<dim>1</dim>
					<dim>384</dim>
					<dim>1024</dim>
				</port>
			</input>
			<output>
				<port id="1" names="586" precision="I64">
					<dim>3</dim>
				</port>
			</output>
		</layer>
		<layer id="250" name="5875162/Cast_1105307_const" type="Const" version="opset1">
			<data element_type="i32" offset="63557644" shape="" size="4"/>
			<output>
				<port id="0" names="585" precision="I32"/>
			</output>
		</layer>
		<layer id="251" name="5875162/Cast_2105309_const" type="Const" version="opset1">
			<data element_type="i64" offset="62509056" shape="" size="8"/>
			<output>
				<port id="0" precision="I64"/>
			</output>
		</layer>
		<layer id="252" name="5875162" type="Gather" version="opset1">
			<input>
				<port id="0">
					<dim>3</dim>
				</port>
				<port id="1"/>
				<port id="2"/>
			</input>
			<output>
				<port id="3" names="587" precision="I64"/>
			</output>
		</layer>
		<layer id="253" name="591/Dims/Output_0/Data__const" type="Const" version="opset1">
			<data element_type="i64" offset="62509056" shape="1" size="8"/>
			<output>
				<port id="0" precision="I64">
					<dim>1</dim>
				</port>
			</output>
		</layer>
		<layer id="254" name="591/Unsqueeze" type="Unsqueeze" version="opset1">
			<input>
				<port id="0"/>
				<port id="1">
					<dim>1</dim>
				</port>
			</input>
			<output>
				<port id="2" names="591" precision="I64">
					<dim>1</dim>
				</port>
			</output>
		</layer>
		<layer id="255" name="592/Unsqueeze/Output_0/Data__const" type="Const" version="opset1">
			<data element_type="i64" offset="65665060" shape="1" size="8"/>
			<output>
				<port id="0" names="592" precision="I64">
					<dim>1</dim>
				</port>
			</output>
		</layer>
		<layer id="256" name="593/Unsqueeze/Output_0/Data__const" type="Const" version="opset1">
			<data element_type="i64" offset="65665068" shape="1" size="8"/>
			<output>
				<port id="0" names="593" precision="I64">
					<dim>1</dim>
				</port>
			</output>
		</layer>
		<layer id="257" name="594" type="Concat" version="opset1">
			<data axis="0"/>
			<input>
				<port id="0">
					<dim>1</dim>
				</port>
				<port id="1">
					<dim>1</dim>
				</port>
				<port id="2">
					<dim>1</dim>
				</port>
				<port id="3">
					<dim>1</dim>
				</port>
			</input>
			<output>
				<port id="4" names="594" precision="I64">
					<dim>4</dim>
				</port>
			</output>
		</layer>
		<layer id="258" name="595" type="Reshape" version="opset1">
			<data special_zero="true"/>
			<input>
				<port id="0">
					<dim>1</dim>
					<dim>384</dim>
					<dim>1024</dim>
				</port>
				<port id="1">
					<dim>4</dim>
				</port>
			</input>
			<output>
				<port id="2" names="595" precision="FP16">
					<dim>1</dim>
					<dim>384</dim>
					<dim>16</dim>
					<dim>64</dim>
				</port>
			</output>
		</layer>
		<layer id="259" name="596/Cast_1106087_const" type="Const" version="opset1">
			<data element_type="i64" offset="65665076" shape="4" size="32"/>
			<output>
				<port id="0" precision="I64">
					<dim>4</dim>
				</port>
			</output>
		</layer>
		<layer id="260" name="596" type="Transpose" version="opset1">
			<input>
				<port id="0">
					<dim>1</dim>
					<dim>384</dim>
					<dim>16</dim>
					<dim>64</dim>
				</port>
				<port id="1">
					<dim>4</dim>
				</port>
			</input>
			<output>
				<port id="2" names="596" precision="FP16">
					<dim>1</dim>
					<dim>16</dim>
					<dim>384</dim>
					<dim>64</dim>
				</port>
			</output>
		</layer>
		<layer id="261" name="603" type="MatMul" version="opset1">
			<data transpose_a="false" transpose_b="false"/>
			<input>
				<port id="0">
					<dim>1</dim>
					<dim>16</dim>
					<dim>384</dim>
					<dim>384</dim>
				</port>
				<port id="1">
					<dim>1</dim>
					<dim>16</dim>
					<dim>384</dim>
					<dim>64</dim>
				</port>
			</input>
			<output>
				<port id="2" names="603" precision="FP16">
					<dim>1</dim>
					<dim>16</dim>
					<dim>384</dim>
					<dim>64</dim>
				</port>
			</output>
		</layer>
		<layer id="262" name="604/Cast_1105651_const" type="Const" version="opset1">
			<data element_type="i64" offset="65665076" shape="4" size="32"/>
			<output>
				<port id="0" precision="I64">
					<dim>4</dim>
				</port>
			</output>
		</layer>
		<layer id="263" name="604" type="Transpose" version="opset1">
			<input>
				<port id="0">
					<dim>1</dim>
					<dim>16</dim>
					<dim>384</dim>
					<dim>64</dim>
				</port>
				<port id="1">
					<dim>4</dim>
				</port>
			</input>
			<output>
				<port id="2" names="604" precision="FP16">
					<dim>1</dim>
					<dim>384</dim>
					<dim>16</dim>
					<dim>64</dim>
				</port>
			</output>
		</layer>
		<layer id="264" name="606" type="ShapeOf" version="opset3">
			<data output_type="i64"/>
			<input>
				<port id="0">
					<dim>1</dim>
					<dim>384</dim>
					<dim>16</dim>
					<dim>64</dim>
				</port>
			</input>
			<output>
				<port id="1" names="606" precision="I64">
					<dim>4</dim>
				</port>
			</output>
		</layer>
		<layer id="265" name="6074816/Cast_1105243_const" type="Const" version="opset1">
			<data element_type="i32" offset="63557640" shape="" size="4"/>
			<output>
				<port id="0" names="605" precision="I32"/>
			</output>
		</layer>
		<layer id="266" name="6074816/Cast_2105245_const" type="Const" version="opset1">
			<data element_type="i64" offset="62509056" shape="" size="8"/>
			<output>
				<port id="0" precision="I64"/>
			</output>
		</layer>
		<layer id="267" name="6074816" type="Gather" version="opset1">
			<input>
				<port id="0">
					<dim>4</dim>
				</port>
				<port id="1"/>
				<port id="2"/>
			</input>
			<output>
				<port id="3" names="607" precision="I64"/>
			</output>
		</layer>
		<layer id="268" name="612/Dims/Output_0/Data__const" type="Const" version="opset1">
			<data element_type="i64" offset="62509056" shape="1" size="8"/>
			<output>
				<port id="0" precision="I64">
					<dim>1</dim>
				</port>
			</output>
		</layer>
		<layer id="269" name="612/Unsqueeze" type="Unsqueeze" version="opset1">
			<input>
				<port id="0"/>
				<port id="1">
					<dim>1</dim>
				</port>
			</input>
			<output>
				<port id="2" names="612" precision="I64">
					<dim>1</dim>
				</port>
			</output>
		</layer>
		<layer id="270" name="609" type="ShapeOf" version="opset3">
			<data output_type="i64"/>
			<input>
				<port id="0">
					<dim>1</dim>
					<dim>384</dim>
					<dim>16</dim>
					<dim>64</dim>
				</port>
			</input>
			<output>
				<port id="1" names="609" precision="I64">
					<dim>4</dim>
				</port>
			</output>
		</layer>
		<layer id="271" name="6105022/Cast_1104951_const" type="Const" version="opset1">
			<data element_type="i32" offset="63557644" shape="" size="4"/>
			<output>
				<port id="0" names="608" precision="I32"/>
			</output>
		</layer>
		<layer id="272" name="6105022/Cast_2104953_const" type="Const" version="opset1">
			<data element_type="i64" offset="62509056" shape="" size="8"/>
			<output>
				<port id="0" precision="I64"/>
			</output>
		</layer>
		<layer id="273" name="6105022" type="Gather" version="opset1">
			<input>
				<port id="0">
					<dim>4</dim>
				</port>
				<port id="1"/>
				<port id="2"/>
			</input>
			<output>
				<port id="3" names="610" precision="I64"/>
			</output>
		</layer>
		<layer id="274" name="613/Dims/Output_0/Data__const" type="Const" version="opset1">
			<data element_type="i64" offset="62509056" shape="1" size="8"/>
			<output>
				<port id="0" precision="I64">
					<dim>1</dim>
				</port>
			</output>
		</layer>
		<layer id="275" name="613/Unsqueeze" type="Unsqueeze" version="opset1">
			<input>
				<port id="0"/>
				<port id="1">
					<dim>1</dim>
				</port>
			</input>
			<output>
				<port id="2" names="613" precision="I64">
					<dim>1</dim>
				</port>
			</output>
		</layer>
		<layer id="276" name="614/Unsqueeze/Output_0/Data__const" type="Const" version="opset1">
			<data element_type="i64" offset="69863596" shape="1" size="8"/>
			<output>
				<port id="0" names="614" precision="I64">
					<dim>1</dim>
				</port>
			</output>
		</layer>
		<layer id="277" name="615" type="Concat" version="opset1">
			<data axis="0"/>
			<input>
				<port id="0">
					<dim>1</dim>
				</port>
				<port id="1">
					<dim>1</dim>
				</port>
				<port id="2">
					<dim>1</dim>
				</port>
			</input>
			<output>
				<port id="3" names="615" precision="I64">
					<dim>3</dim>
				</port>
			</output>
		</layer>
		<layer id="278" name="616" type="Reshape" version="opset1">
			<data special_zero="true"/>
			<input>
				<port id="0">
					<dim>1</dim>
					<dim>384</dim>
					<dim>16</dim>
					<dim>64</dim>
				</port>
				<port id="1">
					<dim>3</dim>
				</port>
			</input>
			<output>
				<port id="2" names="616" precision="FP16">
					<dim>1</dim>
					<dim>384</dim>
					<dim>1024</dim>
				</port>
			</output>
		</layer>
		<layer id="279" name="618/1_port_transpose70465_const" type="Const" version="opset1">
			<data element_type="f16" offset="95056052" shape="1024,1024" size="2097152"/>
			<output>
				<port id="0" names="617" precision="FP16">
					<dim>1024</dim>
					<dim>1024</dim>
				</port>
			</output>
		</layer>
		<layer id="280" name="618" type="MatMul" version="opset1">
			<data transpose_a="false" transpose_b="true"/>
			<input>
				<port id="0">
					<dim>1</dim>
					<dim>384</dim>
					<dim>1024</dim>
				</port>
				<port id="1">
					<dim>1024</dim>
					<dim>1024</dim>
				</port>
			</input>
			<output>
				<port id="2" names="618" precision="FP16">
					<dim>1</dim>
					<dim>384</dim>
					<dim>1024</dim>
				</port>
			</output>
		</layer>
		<layer id="281" name="bert.encoder.layer.1.attention.output.dense.bias/EltwiseUnsqueeze46117_const" type="Const" version="opset1">
			<data element_type="f16" offset="97153204" shape="1,1,1024" size="2048"/>
			<output>
				<port id="0" names="bert.encoder.layer.1.attention.output.dense.bias" precision="FP16">
					<dim>1</dim>
					<dim>1</dim>
					<dim>1024</dim>
				</port>
			</output>
		</layer>
		<layer id="282" name="619" type="Add" version="opset1">
			<data auto_broadcast="numpy"/>
			<input>
				<port id="0">
					<dim>1</dim>
					<dim>384</dim>
					<dim>1024</dim>
				</port>
				<port id="1">
					<dim>1</dim>
					<dim>1</dim>
					<dim>1024</dim>
				</port>
			</input>
			<output>
				<port id="2" names="619" precision="FP16">
					<dim>1</dim>
					<dim>384</dim>
					<dim>1024</dim>
				</port>
			</output>
		</layer>
		<layer id="283" name="620" type="Add" version="opset1">
			<data auto_broadcast="numpy"/>
			<input>
				<port id="0">
					<dim>1</dim>
					<dim>384</dim>
					<dim>1024</dim>
				</port>
				<port id="1">
					<dim>1</dim>
					<dim>384</dim>
					<dim>1024</dim>
				</port>
			</input>
			<output>
				<port id="2" names="620" precision="FP16">
					<dim>1</dim>
					<dim>384</dim>
					<dim>1024</dim>
				</port>
			</output>
		</layer>
		<layer id="284" name="4522_input_port_1/value/Output_0/Data__const" type="Const" version="opset1">
			<data element_type="i64" offset="63561756" shape="1" size="8"/>
			<output>
				<port id="0" precision="I64">
					<dim>1</dim>
				</port>
			</output>
		</layer>
		<layer id="285" name="629" type="MVN" version="opset6">
			<data eps="9.999999960041972e-13" eps_mode="inside_sqrt" normalize_variance="true"/>
			<input>
				<port id="0">
					<dim>1</dim>
					<dim>384</dim>
					<dim>1024</dim>
				</port>
				<port id="1">
					<dim>1</dim>
				</port>
			</input>
			<output>
				<port id="2" names="629" precision="FP16">
					<dim>1</dim>
					<dim>384</dim>
					<dim>1024</dim>
				</port>
			</output>
		</layer>
		<layer id="286" name="bert.encoder.layer.1.attention.output.LayerNorm.weight/EltwiseUnsqueeze46121_const" type="Const" version="opset1">
			<data element_type="f16" offset="97155252" shape="1,1,1024" size="2048"/>
			<output>
				<port id="0" names="bert.encoder.layer.1.attention.output.LayerNorm.weight" precision="FP16">
					<dim>1</dim>
					<dim>1</dim>
					<dim>1024</dim>
				</port>
			</output>
		</layer>
		<layer id="287" name="630" type="Multiply" version="opset1">
			<data auto_broadcast="numpy"/>
			<input>
				<port id="0">
					<dim>1</dim>
					<dim>384</dim>
					<dim>1024</dim>
				</port>
				<port id="1">
					<dim>1</dim>
					<dim>1</dim>
					<dim>1024</dim>
				</port>
			</input>
			<output>
				<port id="2" names="630" precision="FP16">
					<dim>1</dim>
					<dim>384</dim>
					<dim>1024</dim>
				</port>
			</output>
		</layer>
		<layer id="288" name="bert.encoder.layer.1.attention.output.LayerNorm.bias/EltwiseUnsqueeze46125_const" type="Const" version="opset1">
			<data element_type="f16" offset="97157300" shape="1,1,1024" size="2048"/>
			<output>
				<port id="0" names="bert.encoder.layer.1.attention.output.LayerNorm.bias" precision="FP16">
					<dim>1</dim>
					<dim>1</dim>
					<dim>1024</dim>
				</port>
			</output>
		</layer>
		<layer id="289" name="631" type="Add" version="opset1">
			<data auto_broadcast="numpy"/>
			<input>
				<port id="0">
					<dim>1</dim>
					<dim>384</dim>
					<dim>1024</dim>
				</port>
				<port id="1">
					<dim>1</dim>
					<dim>1</dim>
					<dim>1024</dim>
				</port>
			</input>
			<output>
				<port id="2" names="631" precision="FP16">
					<dim>1</dim>
					<dim>384</dim>
					<dim>1024</dim>
				</port>
			</output>
		</layer>
		<layer id="290" name="633/1_port_transpose70517_const" type="Const" version="opset1">
			<data element_type="f16" offset="97159348" shape="4096,1024" size="8388608"/>
			<output>
				<port id="0" names="632" precision="FP16">
					<dim>4096</dim>
					<dim>1024</dim>
				</port>
			</output>
		</layer>
		<layer id="291" name="633" type="MatMul" version="opset1">
			<data transpose_a="false" transpose_b="true"/>
			<input>
				<port id="0">
					<dim>1</dim>
					<dim>384</dim>
					<dim>1024</dim>
				</port>
				<port id="1">
					<dim>4096</dim>
					<dim>1024</dim>
				</port>
			</input>
			<output>
				<port id="2" names="633" precision="FP16">
					<dim>1</dim>
					<dim>384</dim>
					<dim>4096</dim>
				</port>
			</output>
		</layer>
		<layer id="292" name="bert.encoder.layer.1.intermediate.dense.bias/EltwiseUnsqueeze46129_const" type="Const" version="opset1">
			<data element_type="f16" offset="105547956" shape="1,1,4096" size="8192"/>
			<output>
				<port id="0" names="bert.encoder.layer.1.intermediate.dense.bias" precision="FP16">
					<dim>1</dim>
					<dim>1</dim>
					<dim>4096</dim>
				</port>
			</output>
		</layer>
		<layer id="293" name="634" type="Add" version="opset1">
			<data auto_broadcast="numpy"/>
			<input>
				<port id="0">
					<dim>1</dim>
					<dim>384</dim>
					<dim>4096</dim>
				</port>
				<port id="1">
					<dim>1</dim>
					<dim>1</dim>
					<dim>4096</dim>
				</port>
			</input>
			<output>
				<port id="2" names="634" precision="FP16">
					<dim>1</dim>
					<dim>384</dim>
					<dim>4096</dim>
				</port>
			</output>
		</layer>
		<layer id="294" name="642" type="Gelu" version="opset2">
			<input>
				<port id="0">
					<dim>1</dim>
					<dim>384</dim>
					<dim>4096</dim>
				</port>
			</input>
			<output>
				<port id="1" names="642" precision="FP16">
					<dim>1</dim>
					<dim>384</dim>
					<dim>4096</dim>
				</port>
			</output>
		</layer>
		<layer id="295" name="644/1_port_transpose70413_const" type="Const" version="opset1">
			<data element_type="f16" offset="105556148" shape="1024,4096" size="8388608"/>
			<output>
				<port id="0" names="643" precision="FP16">
					<dim>1024</dim>
					<dim>4096</dim>
				</port>
			</output>
		</layer>
		<layer id="296" name="644" type="MatMul" version="opset1">
			<data transpose_a="false" transpose_b="true"/>
			<input>
				<port id="0">
					<dim>1</dim>
					<dim>384</dim>
					<dim>4096</dim>
				</port>
				<port id="1">
					<dim>1024</dim>
					<dim>4096</dim>
				</port>
			</input>
			<output>
				<port id="2" names="644" precision="FP16">
					<dim>1</dim>
					<dim>384</dim>
					<dim>1024</dim>
				</port>
			</output>
		</layer>
		<layer id="297" name="bert.encoder.layer.1.output.dense.bias/EltwiseUnsqueeze46133_const" type="Const" version="opset1">
			<data element_type="f16" offset="113944756" shape="1,1,1024" size="2048"/>
			<output>
				<port id="0" names="bert.encoder.layer.1.output.dense.bias" precision="FP16">
					<dim>1</dim>
					<dim>1</dim>
					<dim>1024</dim>
				</port>
			</output>
		</layer>
		<layer id="298" name="645" type="Add" version="opset1">
			<data auto_broadcast="numpy"/>
			<input>
				<port id="0">
					<dim>1</dim>
					<dim>384</dim>
					<dim>1024</dim>
				</port>
				<port id="1">
					<dim>1</dim>
					<dim>1</dim>
					<dim>1024</dim>
				</port>
			</input>
			<output>
				<port id="2" names="645" precision="FP16">
					<dim>1</dim>
					<dim>384</dim>
					<dim>1024</dim>
				</port>
			</output>
		</layer>
		<layer id="299" name="646" type="Add" version="opset1">
			<data auto_broadcast="numpy"/>
			<input>
				<port id="0">
					<dim>1</dim>
					<dim>384</dim>
					<dim>1024</dim>
				</port>
				<port id="1">
					<dim>1</dim>
					<dim>384</dim>
					<dim>1024</dim>
				</port>
			</input>
			<output>
				<port id="2" names="646" precision="FP16">
					<dim>1</dim>
					<dim>384</dim>
					<dim>1024</dim>
				</port>
			</output>
		</layer>
		<layer id="300" name="4486_input_port_1/value/Output_0/Data__const" type="Const" version="opset1">
			<data element_type="i64" offset="63561756" shape="1" size="8"/>
			<output>
				<port id="0" precision="I64">
					<dim>1</dim>
				</port>
			</output>
		</layer>
		<layer id="301" name="655" type="MVN" version="opset6">
			<data eps="9.999999960041972e-13" eps_mode="inside_sqrt" normalize_variance="true"/>
			<input>
				<port id="0">
					<dim>1</dim>
					<dim>384</dim>
					<dim>1024</dim>
				</port>
				<port id="1">
					<dim>1</dim>
				</port>
			</input>
			<output>
				<port id="2" names="655" precision="FP16">
					<dim>1</dim>
					<dim>384</dim>
					<dim>1024</dim>
				</port>
			</output>
		</layer>
		<layer id="302" name="bert.encoder.layer.1.output.LayerNorm.weight/EltwiseUnsqueeze46137_const" type="Const" version="opset1">
			<data element_type="f16" offset="113946804" shape="1,1,1024" size="2048"/>
			<output>
				<port id="0" names="bert.encoder.layer.1.output.LayerNorm.weight" precision="FP16">
					<dim>1</dim>
					<dim>1</dim>
					<dim>1024</dim>
				</port>
			</output>
		</layer>
		<layer id="303" name="656" type="Multiply" version="opset1">
			<data auto_broadcast="numpy"/>
			<input>
				<port id="0">
					<dim>1</dim>
					<dim>384</dim>
					<dim>1024</dim>
				</port>
				<port id="1">
					<dim>1</dim>
					<dim>1</dim>
					<dim>1024</dim>
				</port>
			</input>
			<output>
				<port id="2" names="656" precision="FP16">
					<dim>1</dim>
					<dim>384</dim>
					<dim>1024</dim>
				</port>
			</output>
		</layer>
		<layer id="304" name="bert.encoder.layer.1.output.LayerNorm.bias/EltwiseUnsqueeze46141_const" type="Const" version="opset1">
			<data element_type="f16" offset="113948852" shape="1,1,1024" size="2048"/>
			<output>
				<port id="0" names="bert.encoder.layer.1.output.LayerNorm.bias" precision="FP16">
					<dim>1</dim>
					<dim>1</dim>
					<dim>1024</dim>
				</port>
			</output>
		</layer>
		<layer id="305" name="657" type="Add" version="opset1">
			<data auto_broadcast="numpy"/>
			<input>
				<port id="0">
					<dim>1</dim>
					<dim>384</dim>
					<dim>1024</dim>
				</port>
				<port id="1">
					<dim>1</dim>
					<dim>1</dim>
					<dim>1024</dim>
				</port>
			</input>
			<output>
				<port id="2" names="657" precision="FP16">
					<dim>1</dim>
					<dim>384</dim>
					<dim>1024</dim>
				</port>
			</output>
		</layer>
		<layer id="306" name="659/1_port_transpose70429_const" type="Const" version="opset1">
			<data element_type="f16" offset="113950900" shape="1024,1024" size="2097152"/>
			<output>
				<port id="0" names="658" precision="FP16">
					<dim>1024</dim>
					<dim>1024</dim>
				</port>
			</output>
		</layer>
		<layer id="307" name="659" type="MatMul" version="opset1">
			<data transpose_a="false" transpose_b="true"/>
			<input>
				<port id="0">
					<dim>1</dim>
					<dim>384</dim>
					<dim>1024</dim>
				</port>
				<port id="1">
					<dim>1024</dim>
					<dim>1024</dim>
				</port>
			</input>
			<output>
				<port id="2" names="659" precision="FP16">
					<dim>1</dim>
					<dim>384</dim>
					<dim>1024</dim>
				</port>
			</output>
		</layer>
		<layer id="308" name="bert.encoder.layer.2.attention.self.query.bias/EltwiseUnsqueeze46145_const" type="Const" version="opset1">
			<data element_type="f16" offset="116048052" shape="1,1,1024" size="2048"/>
			<output>
				<port id="0" names="bert.encoder.layer.2.attention.self.query.bias" precision="FP16">
					<dim>1</dim>
					<dim>1</dim>
					<dim>1024</dim>
				</port>
			</output>
		</layer>
		<layer id="309" name="660" type="Add" version="opset1">
			<data auto_broadcast="numpy"/>
			<input>
				<port id="0">
					<dim>1</dim>
					<dim>384</dim>
					<dim>1024</dim>
				</port>
				<port id="1">
					<dim>1</dim>
					<dim>1</dim>
					<dim>1024</dim>
				</port>
			</input>
			<output>
				<port id="2" names="660" precision="FP16">
					<dim>1</dim>
					<dim>384</dim>
					<dim>1024</dim>
				</port>
			</output>
		</layer>
		<layer id="310" name="668" type="ShapeOf" version="opset3">
			<data output_type="i64"/>
			<input>
				<port id="0">
					<dim>1</dim>
					<dim>384</dim>
					<dim>1024</dim>
				</port>
			</input>
			<output>
				<port id="1" names="668" precision="I64">
					<dim>3</dim>
				</port>
			</output>
		</layer>
		<layer id="311" name="6695166/Cast_1105459_const" type="Const" version="opset1">
			<data element_type="i32" offset="63557640" shape="" size="4"/>
			<output>
				<port id="0" names="667" precision="I32"/>
			</output>
		</layer>
		<layer id="312" name="6695166/Cast_2105461_const" type="Const" version="opset1">
			<data element_type="i64" offset="62509056" shape="" size="8"/>
			<output>
				<port id="0" precision="I64"/>
			</output>
		</layer>
		<layer id="313" name="6695166" type="Gather" version="opset1">
			<input>
				<port id="0">
					<dim>3</dim>
				</port>
				<port id="1"/>
				<port id="2"/>
			</input>
			<output>
				<port id="3" names="669" precision="I64"/>
			</output>
		</layer>
		<layer id="314" name="675/Dims/Output_0/Data__const" type="Const" version="opset1">
			<data element_type="i64" offset="62509056" shape="1" size="8"/>
			<output>
				<port id="0" precision="I64">
					<dim>1</dim>
				</port>
			</output>
		</layer>
		<layer id="315" name="675/Unsqueeze" type="Unsqueeze" version="opset1">
			<input>
				<port id="0"/>
				<port id="1">
					<dim>1</dim>
				</port>
			</input>
			<output>
				<port id="2" names="675" precision="I64">
					<dim>1</dim>
				</port>
			</output>
		</layer>
		<layer id="316" name="671" type="ShapeOf" version="opset3">
			<data output_type="i64"/>
			<input>
				<port id="0">
					<dim>1</dim>
					<dim>384</dim>
					<dim>1024</dim>
				</port>
			</input>
			<output>
				<port id="1" names="671" precision="I64">
					<dim>3</dim>
				</port>
			</output>
		</layer>
		<layer id="317" name="6724928/Cast_1105117_const" type="Const" version="opset1">
			<data element_type="i32" offset="63557644" shape="" size="4"/>
			<output>
				<port id="0" names="670" precision="I32"/>
			</output>
		</layer>
		<layer id="318" name="6724928/Cast_2105119_const" type="Const" version="opset1">
			<data element_type="i64" offset="62509056" shape="" size="8"/>
			<output>
				<port id="0" precision="I64"/>
			</output>
		</layer>
		<layer id="319" name="6724928" type="Gather" version="opset1">
			<input>
				<port id="0">
					<dim>3</dim>
				</port>
				<port id="1"/>
				<port id="2"/>
			</input>
			<output>
				<port id="3" names="672" precision="I64"/>
			</output>
		</layer>
		<layer id="320" name="676/Dims/Output_0/Data__const" type="Const" version="opset1">
			<data element_type="i64" offset="62509056" shape="1" size="8"/>
			<output>
				<port id="0" precision="I64">
					<dim>1</dim>
				</port>
			</output>
		</layer>
		<layer id="321" name="676/Unsqueeze" type="Unsqueeze" version="opset1">
			<input>
				<port id="0"/>
				<port id="1">
					<dim>1</dim>
				</port>
			</input>
			<output>
				<port id="2" names="676" precision="I64">
					<dim>1</dim>
				</port>
			</output>
		</layer>
		<layer id="322" name="677/Unsqueeze/Output_0/Data__const" type="Const" version="opset1">
			<data element_type="i64" offset="65665060" shape="1" size="8"/>
			<output>
				<port id="0" names="677" precision="I64">
					<dim>1</dim>
				</port>
			</output>
		</layer>
		<layer id="323" name="678/Unsqueeze/Output_0/Data__const" type="Const" version="opset1">
			<data element_type="i64" offset="65665068" shape="1" size="8"/>
			<output>
				<port id="0" names="678" precision="I64">
					<dim>1</dim>
				</port>
			</output>
		</layer>
		<layer id="324" name="679" type="Concat" version="opset1">
			<data axis="0"/>
			<input>
				<port id="0">
					<dim>1</dim>
				</port>
				<port id="1">
					<dim>1</dim>
				</port>
				<port id="2">
					<dim>1</dim>
				</port>
				<port id="3">
					<dim>1</dim>
				</port>
			</input>
			<output>
				<port id="4" names="679" precision="I64">
					<dim>4</dim>
				</port>
			</output>
		</layer>
		<layer id="325" name="680" type="Reshape" version="opset1">
			<data special_zero="true"/>
			<input>
				<port id="0">
					<dim>1</dim>
					<dim>384</dim>
					<dim>1024</dim>
				</port>
				<port id="1">
					<dim>4</dim>
				</port>
			</input>
			<output>
				<port id="2" names="680" precision="FP16">
					<dim>1</dim>
					<dim>384</dim>
					<dim>16</dim>
					<dim>64</dim>
				</port>
			</output>
		</layer>
		<layer id="326" name="681/Cast_1105241_const" type="Const" version="opset1">
			<data element_type="i64" offset="65665076" shape="4" size="32"/>
			<output>
				<port id="0" precision="I64">
					<dim>4</dim>
				</port>
			</output>
		</layer>
		<layer id="327" name="681" type="Transpose" version="opset1">
			<input>
				<port id="0">
					<dim>1</dim>
					<dim>384</dim>
					<dim>16</dim>
					<dim>64</dim>
				</port>
				<port id="1">
					<dim>4</dim>
				</port>
			</input>
			<output>
				<port id="2" names="681" precision="FP16">
					<dim>1</dim>
					<dim>16</dim>
					<dim>384</dim>
					<dim>64</dim>
				</port>
			</output>
		</layer>
		<layer id="328" name="662/1_port_transpose70469_const" type="Const" version="opset1">
			<data element_type="f16" offset="116050100" shape="1024,1024" size="2097152"/>
			<output>
				<port id="0" names="661" precision="FP16">
					<dim>1024</dim>
					<dim>1024</dim>
				</port>
			</output>
		</layer>
		<layer id="329" name="662" type="MatMul" version="opset1">
			<data transpose_a="false" transpose_b="true"/>
			<input>
				<port id="0">
					<dim>1</dim>
					<dim>384</dim>
					<dim>1024</dim>
				</port>
				<port id="1">
					<dim>1024</dim>
					<dim>1024</dim>
				</port>
			</input>
			<output>
				<port id="2" names="662" precision="FP16">
					<dim>1</dim>
					<dim>384</dim>
					<dim>1024</dim>
				</port>
			</output>
		</layer>
		<layer id="330" name="bert.encoder.layer.2.attention.self.key.bias/EltwiseUnsqueeze46149_const" type="Const" version="opset1">
			<data element_type="f16" offset="118147252" shape="1,1,1024" size="2048"/>
			<output>
				<port id="0" names="bert.encoder.layer.2.attention.self.key.bias" precision="FP16">
					<dim>1</dim>
					<dim>1</dim>
					<dim>1024</dim>
				</port>
			</output>
		</layer>
		<layer id="331" name="663" type="Add" version="opset1">
			<data auto_broadcast="numpy"/>
			<input>
				<port id="0">
					<dim>1</dim>
					<dim>384</dim>
					<dim>1024</dim>
				</port>
				<port id="1">
					<dim>1</dim>
					<dim>1</dim>
					<dim>1024</dim>
				</port>
			</input>
			<output>
				<port id="2" names="663" precision="FP16">
					<dim>1</dim>
					<dim>384</dim>
					<dim>1024</dim>
				</port>
			</output>
		</layer>
		<layer id="332" name="683" type="ShapeOf" version="opset3">
			<data output_type="i64"/>
			<input>
				<port id="0">
					<dim>1</dim>
					<dim>384</dim>
					<dim>1024</dim>
				</port>
			</input>
			<output>
				<port id="1" names="683" precision="I64">
					<dim>3</dim>
				</port>
			</output>
		</layer>
		<layer id="333" name="6844872/Cast_1104885_const" type="Const" version="opset1">
			<data element_type="i32" offset="63557640" shape="" size="4"/>
			<output>
				<port id="0" names="682" precision="I32"/>
			</output>
		</layer>
		<layer id="334" name="6844872/Cast_2104887_const" type="Const" version="opset1">
			<data element_type="i64" offset="62509056" shape="" size="8"/>
			<output>
				<port id="0" precision="I64"/>
			</output>
		</layer>
		<layer id="335" name="6844872" type="Gather" version="opset1">
			<input>
				<port id="0">
					<dim>3</dim>
				</port>
				<port id="1"/>
				<port id="2"/>
			</input>
			<output>
				<port id="3" names="684" precision="I64"/>
			</output>
		</layer>
		<layer id="336" name="690/Dims/Output_0/Data__const" type="Const" version="opset1">
			<data element_type="i64" offset="62509056" shape="1" size="8"/>
			<output>
				<port id="0" precision="I64">
					<dim>1</dim>
				</port>
			</output>
		</layer>
		<layer id="337" name="690/Unsqueeze" type="Unsqueeze" version="opset1">
			<input>
				<port id="0"/>
				<port id="1">
					<dim>1</dim>
				</port>
			</input>
			<output>
				<port id="2" names="690" precision="I64">
					<dim>1</dim>
				</port>
			</output>
		</layer>
		<layer id="338" name="686" type="ShapeOf" version="opset3">
			<data output_type="i64"/>
			<input>
				<port id="0">
					<dim>1</dim>
					<dim>384</dim>
					<dim>1024</dim>
				</port>
			</input>
			<output>
				<port id="1" names="686" precision="I64">
					<dim>3</dim>
				</port>
			</output>
		</layer>
		<layer id="339" name="6874944/Cast_1105091_const" type="Const" version="opset1">
			<data element_type="i32" offset="63557644" shape="" size="4"/>
			<output>
				<port id="0" names="685" precision="I32"/>
			</output>
		</layer>
		<layer id="340" name="6874944/Cast_2105093_const" type="Const" version="opset1">
			<data element_type="i64" offset="62509056" shape="" size="8"/>
			<output>
				<port id="0" precision="I64"/>
			</output>
		</layer>
		<layer id="341" name="6874944" type="Gather" version="opset1">
			<input>
				<port id="0">
					<dim>3</dim>
				</port>
				<port id="1"/>
				<port id="2"/>
			</input>
			<output>
				<port id="3" names="687" precision="I64"/>
			</output>
		</layer>
		<layer id="342" name="691/Dims/Output_0/Data__const" type="Const" version="opset1">
			<data element_type="i64" offset="62509056" shape="1" size="8"/>
			<output>
				<port id="0" precision="I64">
					<dim>1</dim>
				</port>
			</output>
		</layer>
		<layer id="343" name="691/Unsqueeze" type="Unsqueeze" version="opset1">
			<input>
				<port id="0"/>
				<port id="1">
					<dim>1</dim>
				</port>
			</input>
			<output>
				<port id="2" names="691" precision="I64">
					<dim>1</dim>
				</port>
			</output>
		</layer>
		<layer id="344" name="692/Unsqueeze/Output_0/Data__const" type="Const" version="opset1">
			<data element_type="i64" offset="65665060" shape="1" size="8"/>
			<output>
				<port id="0" names="692" precision="I64">
					<dim>1</dim>
				</port>
			</output>
		</layer>
		<layer id="345" name="693/Unsqueeze/Output_0/Data__const" type="Const" version="opset1">
			<data element_type="i64" offset="65665068" shape="1" size="8"/>
			<output>
				<port id="0" names="693" precision="I64">
					<dim>1</dim>
				</port>
			</output>
		</layer>
		<layer id="346" name="694" type="Concat" version="opset1">
			<data axis="0"/>
			<input>
				<port id="0">
					<dim>1</dim>
				</port>
				<port id="1">
					<dim>1</dim>
				</port>
				<port id="2">
					<dim>1</dim>
				</port>
				<port id="3">
					<dim>1</dim>
				</port>
			</input>
			<output>
				<port id="4" names="694" precision="I64">
					<dim>4</dim>
				</port>
			</output>
		</layer>
		<layer id="347" name="695" type="Reshape" version="opset1">
			<data special_zero="true"/>
			<input>
				<port id="0">
					<dim>1</dim>
					<dim>384</dim>
					<dim>1024</dim>
				</port>
				<port id="1">
					<dim>4</dim>
				</port>
			</input>
			<output>
				<port id="2" names="695" precision="FP16">
					<dim>1</dim>
					<dim>384</dim>
					<dim>16</dim>
					<dim>64</dim>
				</port>
			</output>
		</layer>
		<layer id="348" name="711/Cast_1105837_const" type="Const" version="opset1">
			<data element_type="i64" offset="67764308" shape="4" size="32"/>
			<output>
				<port id="0" precision="I64">
					<dim>4</dim>
				</port>
			</output>
		</layer>
		<layer id="349" name="711" type="Transpose" version="opset1">
			<input>
				<port id="0">
					<dim>1</dim>
					<dim>384</dim>
					<dim>16</dim>
					<dim>64</dim>
				</port>
				<port id="1">
					<dim>4</dim>
				</port>
			</input>
			<output>
				<port id="2" precision="FP16">
					<dim>1</dim>
					<dim>16</dim>
					<dim>64</dim>
					<dim>384</dim>
				</port>
			</output>
		</layer>
		<layer id="350" name="714_copy/const4856254314/EltwiseUnsqueeze54347_const" type="Const" version="opset1">
			<data element_type="f16" offset="67764340" shape="1,16,1,1" size="32"/>
			<output>
				<port id="0" precision="FP16">
					<dim>1</dim>
					<dim>16</dim>
					<dim>1</dim>
					<dim>1</dim>
				</port>
			</output>
		</layer>
		<layer id="351" name="714_copy" type="Multiply" version="opset1">
			<data auto_broadcast="numpy"/>
			<input>
				<port id="0">
					<dim>1</dim>
					<dim>16</dim>
					<dim>64</dim>
					<dim>384</dim>
				</port>
				<port id="1">
					<dim>1</dim>
					<dim>16</dim>
					<dim>1</dim>
					<dim>1</dim>
				</port>
			</input>
			<output>
				<port id="2" names="711" precision="FP16">
					<dim>1</dim>
					<dim>16</dim>
					<dim>64</dim>
					<dim>384</dim>
				</port>
			</output>
		</layer>
		<layer id="352" name="712" type="MatMul" version="opset1">
			<data transpose_a="false" transpose_b="false"/>
			<input>
				<port id="0">
					<dim>1</dim>
					<dim>16</dim>
					<dim>384</dim>
					<dim>64</dim>
				</port>
				<port id="1">
					<dim>1</dim>
					<dim>16</dim>
					<dim>64</dim>
					<dim>384</dim>
				</port>
			</input>
			<output>
				<port id="2" names="714" precision="FP16">
					<dim>1</dim>
					<dim>16</dim>
					<dim>384</dim>
					<dim>384</dim>
				</port>
			</output>
		</layer>
		<layer id="353" name="715" type="Add" version="opset1">
			<data auto_broadcast="numpy"/>
			<input>
				<port id="0">
					<dim>1</dim>
					<dim>16</dim>
					<dim>384</dim>
					<dim>384</dim>
				</port>
				<port id="1">
					<dim>1</dim>
					<dim>1</dim>
					<dim>1</dim>
					<dim>384</dim>
				</port>
			</input>
			<output>
				<port id="2" names="715" precision="FP16">
					<dim>1</dim>
					<dim>16</dim>
					<dim>384</dim>
					<dim>384</dim>
				</port>
			</output>
		</layer>
		<layer id="354" name="716/FlattenONNX_/input_shape" type="ShapeOf" version="opset3">
			<data output_type="i64"/>
			<input>
				<port id="0">
					<dim>1</dim>
					<dim>16</dim>
					<dim>384</dim>
					<dim>384</dim>
				</port>
			</input>
			<output>
				<port id="1" precision="I64">
					<dim>4</dim>
				</port>
			</output>
		</layer>
		<layer id="355" name="716/FlattenONNX_/input_shape/Gather/Cast_1104819_const" type="Const" version="opset1">
			<data element_type="i32" offset="67764384" shape="3" size="12"/>
			<output>
				<port id="0" precision="I32">
					<dim>3</dim>
				</port>
			</output>
		</layer>
		<layer id="356" name="716/FlattenONNX_/input_shape/Gather/Cast_2104821_const" type="Const" version="opset1">
			<data element_type="i64" offset="62509056" shape="" size="8"/>
			<output>
				<port id="0" precision="I64"/>
			</output>
		</layer>
		<layer id="357" name="716/FlattenONNX_/input_shape/Gather" type="Gather" version="opset1">
			<input>
				<port id="0">
					<dim>4</dim>
				</port>
				<port id="1">
					<dim>3</dim>
				</port>
				<port id="2"/>
			</input>
			<output>
				<port id="3" precision="I64">
					<dim>3</dim>
				</port>
			</output>
		</layer>
		<layer id="358" name="716/FlattenONNX_/first_dims/Cast_1104809_const" type="Const" version="opset1">
			<data element_type="i64" offset="62509056" shape="1" size="8"/>
			<output>
				<port id="0" precision="I64">
					<dim>1</dim>
				</port>
			</output>
		</layer>
		<layer id="359" name="716/FlattenONNX_/first_dims" type="ReduceProd" version="opset1">
			<data keep_dims="true"/>
			<input>
				<port id="0">
					<dim>3</dim>
				</port>
				<port id="1">
					<dim>1</dim>
				</port>
			</input>
			<output>
				<port id="2" precision="I64">
					<dim>1</dim>
				</port>
			</output>
		</layer>
		<layer id="360" name="716/FlattenONNX_/second_dims/Output_0/Data__const" type="Const" version="opset1">
			<data element_type="i64" offset="63561756" shape="1" size="8"/>
			<output>
				<port id="0" precision="I64">
					<dim>1</dim>
				</port>
			</output>
		</layer>
		<layer id="361" name="716/FlattenONNX_/first_dims/shapes_concat" type="Concat" version="opset1">
			<data axis="0"/>
			<input>
				<port id="0">
					<dim>1</dim>
				</port>
				<port id="1">
					<dim>1</dim>
				</port>
			</input>
			<output>
				<port id="2" precision="I64">
					<dim>2</dim>
				</port>
			</output>
		</layer>
		<layer id="362" name="716/FlattenONNX_/Reshape" type="Reshape" version="opset1">
			<data special_zero="true"/>
			<input>
				<port id="0">
					<dim>1</dim>
					<dim>16</dim>
					<dim>384</dim>
					<dim>384</dim>
				</port>
				<port id="1">
					<dim>2</dim>
				</port>
			</input>
			<output>
				<port id="2" precision="FP16">
					<dim>6144</dim>
					<dim>384</dim>
				</port>
			</output>
		</layer>
		<layer id="363" name="716/Softmax_" type="SoftMax" version="opset1">
			<data axis="1"/>
			<input>
				<port id="0">
					<dim>6144</dim>
					<dim>384</dim>
				</port>
			</input>
			<output>
				<port id="1" precision="FP16">
					<dim>6144</dim>
					<dim>384</dim>
				</port>
			</output>
		</layer>
		<layer id="364" name="716/ShapeOf_" type="ShapeOf" version="opset3">
			<data output_type="i64"/>
			<input>
				<port id="0">
					<dim>1</dim>
					<dim>16</dim>
					<dim>384</dim>
					<dim>384</dim>
				</port>
			</input>
			<output>
				<port id="1" precision="I64">
					<dim>4</dim>
				</port>
			</output>
		</layer>
		<layer id="365" name="716" type="Reshape" version="opset1">
			<data special_zero="true"/>
			<input>
				<port id="0">
					<dim>6144</dim>
					<dim>384</dim>
				</port>
				<port id="1">
					<dim>4</dim>
				</port>
			</input>
			<output>
				<port id="2" names="716" precision="FP16">
					<dim>1</dim>
					<dim>16</dim>
					<dim>384</dim>
					<dim>384</dim>
				</port>
			</output>
		</layer>
		<layer id="366" name="665/1_port_transpose70257_const" type="Const" version="opset1">
			<data element_type="f16" offset="118149300" shape="1024,1024" size="2097152"/>
			<output>
				<port id="0" names="664" precision="FP16">
					<dim>1024</dim>
					<dim>1024</dim>
				</port>
			</output>
		</layer>
		<layer id="367" name="665" type="MatMul" version="opset1">
			<data transpose_a="false" transpose_b="true"/>
			<input>
				<port id="0">
					<dim>1</dim>
					<dim>384</dim>
					<dim>1024</dim>
				</port>
				<port id="1">
					<dim>1024</dim>
					<dim>1024</dim>
				</port>
			</input>
			<output>
				<port id="2" names="665" precision="FP16">
					<dim>1</dim>
					<dim>384</dim>
					<dim>1024</dim>
				</port>
			</output>
		</layer>
		<layer id="368" name="bert.encoder.layer.2.attention.self.value.bias/EltwiseUnsqueeze46153_const" type="Const" version="opset1">
			<data element_type="f16" offset="120246452" shape="1,1,1024" size="2048"/>
			<output>
				<port id="0" names="bert.encoder.layer.2.attention.self.value.bias" precision="FP16">
					<dim>1</dim>
					<dim>1</dim>
					<dim>1024</dim>
				</port>
			</output>
		</layer>
		<layer id="369" name="666" type="Add" version="opset1">
			<data auto_broadcast="numpy"/>
			<input>
				<port id="0">
					<dim>1</dim>
					<dim>384</dim>
					<dim>1024</dim>
				</port>
				<port id="1">
					<dim>1</dim>
					<dim>1</dim>
					<dim>1024</dim>
				</port>
			</input>
			<output>
				<port id="2" names="666" precision="FP16">
					<dim>1</dim>
					<dim>384</dim>
					<dim>1024</dim>
				</port>
			</output>
		</layer>
		<layer id="370" name="697" type="ShapeOf" version="opset3">
			<data output_type="i64"/>
			<input>
				<port id="0">
					<dim>1</dim>
					<dim>384</dim>
					<dim>1024</dim>
				</port>
			</input>
			<output>
				<port id="1" names="697" precision="I64">
					<dim>3</dim>
				</port>
			</output>
		</layer>
		<layer id="371" name="6985040/Cast_1105277_const" type="Const" version="opset1">
			<data element_type="i32" offset="63557640" shape="" size="4"/>
			<output>
				<port id="0" names="696" precision="I32"/>
			</output>
		</layer>
		<layer id="372" name="6985040/Cast_2105279_const" type="Const" version="opset1">
			<data element_type="i64" offset="62509056" shape="" size="8"/>
			<output>
				<port id="0" precision="I64"/>
			</output>
		</layer>
		<layer id="373" name="6985040" type="Gather" version="opset1">
			<input>
				<port id="0">
					<dim>3</dim>
				</port>
				<port id="1"/>
				<port id="2"/>
			</input>
			<output>
				<port id="3" names="698" precision="I64"/>
			</output>
		</layer>
		<layer id="374" name="704/Dims/Output_0/Data__const" type="Const" version="opset1">
			<data element_type="i64" offset="62509056" shape="1" size="8"/>
			<output>
				<port id="0" precision="I64">
					<dim>1</dim>
				</port>
			</output>
		</layer>
		<layer id="375" name="704/Unsqueeze" type="Unsqueeze" version="opset1">
			<input>
				<port id="0"/>
				<port id="1">
					<dim>1</dim>
				</port>
			</input>
			<output>
				<port id="2" names="704" precision="I64">
					<dim>1</dim>
				</port>
			</output>
		</layer>
		<layer id="376" name="700" type="ShapeOf" version="opset3">
			<data output_type="i64"/>
			<input>
				<port id="0">
					<dim>1</dim>
					<dim>384</dim>
					<dim>1024</dim>
				</port>
			</input>
			<output>
				<port id="1" names="700" precision="I64">
					<dim>3</dim>
				</port>
			</output>
		</layer>
		<layer id="377" name="7014866/Cast_1105911_const" type="Const" version="opset1">
			<data element_type="i32" offset="63557644" shape="" size="4"/>
			<output>
				<port id="0" names="699" precision="I32"/>
			</output>
		</layer>
		<layer id="378" name="7014866/Cast_2105913_const" type="Const" version="opset1">
			<data element_type="i64" offset="62509056" shape="" size="8"/>
			<output>
				<port id="0" precision="I64"/>
			</output>
		</layer>
		<layer id="379" name="7014866" type="Gather" version="opset1">
			<input>
				<port id="0">
					<dim>3</dim>
				</port>
				<port id="1"/>
				<port id="2"/>
			</input>
			<output>
				<port id="3" names="701" precision="I64"/>
			</output>
		</layer>
		<layer id="380" name="705/Dims/Output_0/Data__const" type="Const" version="opset1">
			<data element_type="i64" offset="62509056" shape="1" size="8"/>
			<output>
				<port id="0" precision="I64">
					<dim>1</dim>
				</port>
			</output>
		</layer>
		<layer id="381" name="705/Unsqueeze" type="Unsqueeze" version="opset1">
			<input>
				<port id="0"/>
				<port id="1">
					<dim>1</dim>
				</port>
			</input>
			<output>
				<port id="2" names="705" precision="I64">
					<dim>1</dim>
				</port>
			</output>
		</layer>
		<layer id="382" name="706/Unsqueeze/Output_0/Data__const" type="Const" version="opset1">
			<data element_type="i64" offset="65665060" shape="1" size="8"/>
			<output>
				<port id="0" names="706" precision="I64">
					<dim>1</dim>
				</port>
			</output>
		</layer>
		<layer id="383" name="707/Unsqueeze/Output_0/Data__const" type="Const" version="opset1">
			<data element_type="i64" offset="65665068" shape="1" size="8"/>
			<output>
				<port id="0" names="707" precision="I64">
					<dim>1</dim>
				</port>
			</output>
		</layer>
		<layer id="384" name="708" type="Concat" version="opset1">
			<data axis="0"/>
			<input>
				<port id="0">
					<dim>1</dim>
				</port>
				<port id="1">
					<dim>1</dim>
				</port>
				<port id="2">
					<dim>1</dim>
				</port>
				<port id="3">
					<dim>1</dim>
				</port>
			</input>
			<output>
				<port id="4" names="708" precision="I64">
					<dim>4</dim>
				</port>
			</output>
		</layer>
		<layer id="385" name="709" type="Reshape" version="opset1">
			<data special_zero="true"/>
			<input>
				<port id="0">
					<dim>1</dim>
					<dim>384</dim>
					<dim>1024</dim>
				</port>
				<port id="1">
					<dim>4</dim>
				</port>
			</input>
			<output>
				<port id="2" names="709" precision="FP16">
					<dim>1</dim>
					<dim>384</dim>
					<dim>16</dim>
					<dim>64</dim>
				</port>
			</output>
		</layer>
		<layer id="386" name="710/Cast_1106119_const" type="Const" version="opset1">
			<data element_type="i64" offset="65665076" shape="4" size="32"/>
			<output>
				<port id="0" precision="I64">
					<dim>4</dim>
				</port>
			</output>
		</layer>
		<layer id="387" name="710" type="Transpose" version="opset1">
			<input>
				<port id="0">
					<dim>1</dim>
					<dim>384</dim>
					<dim>16</dim>
					<dim>64</dim>
				</port>
				<port id="1">
					<dim>4</dim>
				</port>
			</input>
			<output>
				<port id="2" names="710" precision="FP16">
					<dim>1</dim>
					<dim>16</dim>
					<dim>384</dim>
					<dim>64</dim>
				</port>
			</output>
		</layer>
		<layer id="388" name="717" type="MatMul" version="opset1">
			<data transpose_a="false" transpose_b="false"/>
			<input>
				<port id="0">
					<dim>1</dim>
					<dim>16</dim>
					<dim>384</dim>
					<dim>384</dim>
				</port>
				<port id="1">
					<dim>1</dim>
					<dim>16</dim>
					<dim>384</dim>
					<dim>64</dim>
				</port>
			</input>
			<output>
				<port id="2" names="717" precision="FP16">
					<dim>1</dim>
					<dim>16</dim>
					<dim>384</dim>
					<dim>64</dim>
				</port>
			</output>
		</layer>
		<layer id="389" name="718/Cast_1105601_const" type="Const" version="opset1">
			<data element_type="i64" offset="65665076" shape="4" size="32"/>
			<output>
				<port id="0" precision="I64">
					<dim>4</dim>
				</port>
			</output>
		</layer>
		<layer id="390" name="718" type="Transpose" version="opset1">
			<input>
				<port id="0">
					<dim>1</dim>
					<dim>16</dim>
					<dim>384</dim>
					<dim>64</dim>
				</port>
				<port id="1">
					<dim>4</dim>
				</port>
			</input>
			<output>
				<port id="2" names="718" precision="FP16">
					<dim>1</dim>
					<dim>384</dim>
					<dim>16</dim>
					<dim>64</dim>
				</port>
			</output>
		</layer>
		<layer id="391" name="720" type="ShapeOf" version="opset3">
			<data output_type="i64"/>
			<input>
				<port id="0">
					<dim>1</dim>
					<dim>384</dim>
					<dim>16</dim>
					<dim>64</dim>
				</port>
			</input>
			<output>
				<port id="1" names="720" precision="I64">
					<dim>4</dim>
				</port>
			</output>
		</layer>
		<layer id="392" name="7215134/Cast_1105747_const" type="Const" version="opset1">
			<data element_type="i32" offset="63557640" shape="" size="4"/>
			<output>
				<port id="0" names="719" precision="I32"/>
			</output>
		</layer>
		<layer id="393" name="7215134/Cast_2105749_const" type="Const" version="opset1">
			<data element_type="i64" offset="62509056" shape="" size="8"/>
			<output>
				<port id="0" precision="I64"/>
			</output>
		</layer>
		<layer id="394" name="7215134" type="Gather" version="opset1">
			<input>
				<port id="0">
					<dim>4</dim>
				</port>
				<port id="1"/>
				<port id="2"/>
			</input>
			<output>
				<port id="3" names="721" precision="I64"/>
			</output>
		</layer>
		<layer id="395" name="726/Dims/Output_0/Data__const" type="Const" version="opset1">
			<data element_type="i64" offset="62509056" shape="1" size="8"/>
			<output>
				<port id="0" precision="I64">
					<dim>1</dim>
				</port>
			</output>
		</layer>
		<layer id="396" name="726/Unsqueeze" type="Unsqueeze" version="opset1">
			<input>
				<port id="0"/>
				<port id="1">
					<dim>1</dim>
				</port>
			</input>
			<output>
				<port id="2" names="726" precision="I64">
					<dim>1</dim>
				</port>
			</output>
		</layer>
		<layer id="397" name="723" type="ShapeOf" version="opset3">
			<data output_type="i64"/>
			<input>
				<port id="0">
					<dim>1</dim>
					<dim>384</dim>
					<dim>16</dim>
					<dim>64</dim>
				</port>
			</input>
			<output>
				<port id="1" names="723" precision="I64">
					<dim>4</dim>
				</port>
			</output>
		</layer>
		<layer id="398" name="7245016/Cast_1105447_const" type="Const" version="opset1">
			<data element_type="i32" offset="63557644" shape="" size="4"/>
			<output>
				<port id="0" names="722" precision="I32"/>
			</output>
		</layer>
		<layer id="399" name="7245016/Cast_2105449_const" type="Const" version="opset1">
			<data element_type="i64" offset="62509056" shape="" size="8"/>
			<output>
				<port id="0" precision="I64"/>
			</output>
		</layer>
		<layer id="400" name="7245016" type="Gather" version="opset1">
			<input>
				<port id="0">
					<dim>4</dim>
				</port>
				<port id="1"/>
				<port id="2"/>
			</input>
			<output>
				<port id="3" names="724" precision="I64"/>
			</output>
		</layer>
		<layer id="401" name="727/Dims/Output_0/Data__const" type="Const" version="opset1">
			<data element_type="i64" offset="62509056" shape="1" size="8"/>
			<output>
				<port id="0" precision="I64">
					<dim>1</dim>
				</port>
			</output>
		</layer>
		<layer id="402" name="727/Unsqueeze" type="Unsqueeze" version="opset1">
			<input>
				<port id="0"/>
				<port id="1">
					<dim>1</dim>
				</port>
			</input>
			<output>
				<port id="2" names="727" precision="I64">
					<dim>1</dim>
				</port>
			</output>
		</layer>
		<layer id="403" name="728/Unsqueeze/Output_0/Data__const" type="Const" version="opset1">
			<data element_type="i64" offset="69863596" shape="1" size="8"/>
			<output>
				<port id="0" names="728" precision="I64">
					<dim>1</dim>
				</port>
			</output>
		</layer>
		<layer id="404" name="729" type="Concat" version="opset1">
			<data axis="0"/>
			<input>
				<port id="0">
					<dim>1</dim>
				</port>
				<port id="1">
					<dim>1</dim>
				</port>
				<port id="2">
					<dim>1</dim>
				</port>
			</input>
			<output>
				<port id="3" names="729" precision="I64">
					<dim>3</dim>
				</port>
			</output>
		</layer>
		<layer id="405" name="730" type="Reshape" version="opset1">
			<data special_zero="true"/>
			<input>
				<port id="0">
					<dim>1</dim>
					<dim>384</dim>
					<dim>16</dim>
					<dim>64</dim>
				</port>
				<port id="1">
					<dim>3</dim>
				</port>
			</input>
			<output>
				<port id="2" names="730" precision="FP16">
					<dim>1</dim>
					<dim>384</dim>
					<dim>1024</dim>
				</port>
			</output>
		</layer>
		<layer id="406" name="732/1_port_transpose70593_const" type="Const" version="opset1">
			<data element_type="f16" offset="120248500" shape="1024,1024" size="2097152"/>
			<output>
				<port id="0" names="731" precision="FP16">
					<dim>1024</dim>
					<dim>1024</dim>
				</port>
			</output>
		</layer>
		<layer id="407" name="732" type="MatMul" version="opset1">
			<data transpose_a="false" transpose_b="true"/>
			<input>
				<port id="0">
					<dim>1</dim>
					<dim>384</dim>
					<dim>1024</dim>
				</port>
				<port id="1">
					<dim>1024</dim>
					<dim>1024</dim>
				</port>
			</input>
			<output>
				<port id="2" names="732" precision="FP16">
					<dim>1</dim>
					<dim>384</dim>
					<dim>1024</dim>
				</port>
			</output>
		</layer>
		<layer id="408" name="bert.encoder.layer.2.attention.output.dense.bias/EltwiseUnsqueeze46157_const" type="Const" version="opset1">
			<data element_type="f16" offset="122345652" shape="1,1,1024" size="2048"/>
			<output>
				<port id="0" names="bert.encoder.layer.2.attention.output.dense.bias" precision="FP16">
					<dim>1</dim>
					<dim>1</dim>
					<dim>1024</dim>
				</port>
			</output>
		</layer>
		<layer id="409" name="733" type="Add" version="opset1">
			<data auto_broadcast="numpy"/>
			<input>
				<port id="0">
					<dim>1</dim>
					<dim>384</dim>
					<dim>1024</dim>
				</port>
				<port id="1">
					<dim>1</dim>
					<dim>1</dim>
					<dim>1024</dim>
				</port>
			</input>
			<output>
				<port id="2" names="733" precision="FP16">
					<dim>1</dim>
					<dim>384</dim>
					<dim>1024</dim>
				</port>
			</output>
		</layer>
		<layer id="410" name="734" type="Add" version="opset1">
			<data auto_broadcast="numpy"/>
			<input>
				<port id="0">
					<dim>1</dim>
					<dim>384</dim>
					<dim>1024</dim>
				</port>
				<port id="1">
					<dim>1</dim>
					<dim>384</dim>
					<dim>1024</dim>
				</port>
			</input>
			<output>
				<port id="2" names="734" precision="FP16">
					<dim>1</dim>
					<dim>384</dim>
					<dim>1024</dim>
				</port>
			</output>
		</layer>
		<layer id="411" name="4510_input_port_1/value/Output_0/Data__const" type="Const" version="opset1">
			<data element_type="i64" offset="63561756" shape="1" size="8"/>
			<output>
				<port id="0" precision="I64">
					<dim>1</dim>
				</port>
			</output>
		</layer>
		<layer id="412" name="743" type="MVN" version="opset6">
			<data eps="9.999999960041972e-13" eps_mode="inside_sqrt" normalize_variance="true"/>
			<input>
				<port id="0">
					<dim>1</dim>
					<dim>384</dim>
					<dim>1024</dim>
				</port>
				<port id="1">
					<dim>1</dim>
				</port>
			</input>
			<output>
				<port id="2" names="743" precision="FP16">
					<dim>1</dim>
					<dim>384</dim>
					<dim>1024</dim>
				</port>
			</output>
		</layer>
		<layer id="413" name="bert.encoder.layer.2.attention.output.LayerNorm.weight/EltwiseUnsqueeze46161_const" type="Const" version="opset1">
			<data element_type="f16" offset="122347700" shape="1,1,1024" size="2048"/>
			<output>
				<port id="0" names="bert.encoder.layer.2.attention.output.LayerNorm.weight" precision="FP16">
					<dim>1</dim>
					<dim>1</dim>
					<dim>1024</dim>
				</port>
			</output>
		</layer>
		<layer id="414" name="744" type="Multiply" version="opset1">
			<data auto_broadcast="numpy"/>
			<input>
				<port id="0">
					<dim>1</dim>
					<dim>384</dim>
					<dim>1024</dim>
				</port>
				<port id="1">
					<dim>1</dim>
					<dim>1</dim>
					<dim>1024</dim>
				</port>
			</input>
			<output>
				<port id="2" names="744" precision="FP16">
					<dim>1</dim>
					<dim>384</dim>
					<dim>1024</dim>
				</port>
			</output>
		</layer>
		<layer id="415" name="bert.encoder.layer.2.attention.output.LayerNorm.bias/EltwiseUnsqueeze46165_const" type="Const" version="opset1">
			<data element_type="f16" offset="122349748" shape="1,1,1024" size="2048"/>
			<output>
				<port id="0" names="bert.encoder.layer.2.attention.output.LayerNorm.bias" precision="FP16">
					<dim>1</dim>
					<dim>1</dim>
					<dim>1024</dim>
				</port>
			</output>
		</layer>
		<layer id="416" name="745" type="Add" version="opset1">
			<data auto_broadcast="numpy"/>
			<input>
				<port id="0">
					<dim>1</dim>
					<dim>384</dim>
					<dim>1024</dim>
				</port>
				<port id="1">
					<dim>1</dim>
					<dim>1</dim>
					<dim>1024</dim>
				</port>
			</input>
			<output>
				<port id="2" names="745" precision="FP16">
					<dim>1</dim>
					<dim>384</dim>
					<dim>1024</dim>
				</port>
			</output>
		</layer>
		<layer id="417" name="747/1_port_transpose70273_const" type="Const" version="opset1">
			<data element_type="f16" offset="122351796" shape="4096,1024" size="8388608"/>
			<output>
				<port id="0" names="746" precision="FP16">
					<dim>4096</dim>
					<dim>1024</dim>
				</port>
			</output>
		</layer>
		<layer id="418" name="747" type="MatMul" version="opset1">
			<data transpose_a="false" transpose_b="true"/>
			<input>
				<port id="0">
					<dim>1</dim>
					<dim>384</dim>
					<dim>1024</dim>
				</port>
				<port id="1">
					<dim>4096</dim>
					<dim>1024</dim>
				</port>
			</input>
			<output>
				<port id="2" names="747" precision="FP16">
					<dim>1</dim>
					<dim>384</dim>
					<dim>4096</dim>
				</port>
			</output>
		</layer>
		<layer id="419" name="bert.encoder.layer.2.intermediate.dense.bias/EltwiseUnsqueeze46169_const" type="Const" version="opset1">
			<data element_type="f16" offset="130740404" shape="1,1,4096" size="8192"/>
			<output>
				<port id="0" names="bert.encoder.layer.2.intermediate.dense.bias" precision="FP16">
					<dim>1</dim>
					<dim>1</dim>
					<dim>4096</dim>
				</port>
			</output>
		</layer>
		<layer id="420" name="748" type="Add" version="opset1">
			<data auto_broadcast="numpy"/>
			<input>
				<port id="0">
					<dim>1</dim>
					<dim>384</dim>
					<dim>4096</dim>
				</port>
				<port id="1">
					<dim>1</dim>
					<dim>1</dim>
					<dim>4096</dim>
				</port>
			</input>
			<output>
				<port id="2" names="748" precision="FP16">
					<dim>1</dim>
					<dim>384</dim>
					<dim>4096</dim>
				</port>
			</output>
		</layer>
		<layer id="421" name="756" type="Gelu" version="opset2">
			<input>
				<port id="0">
					<dim>1</dim>
					<dim>384</dim>
					<dim>4096</dim>
				</port>
			</input>
			<output>
				<port id="1" names="756" precision="FP16">
					<dim>1</dim>
					<dim>384</dim>
					<dim>4096</dim>
				</port>
			</output>
		</layer>
		<layer id="422" name="758/1_port_transpose70433_const" type="Const" version="opset1">
			<data element_type="f16" offset="130748596" shape="1024,4096" size="8388608"/>
			<output>
				<port id="0" names="757" precision="FP16">
					<dim>1024</dim>
					<dim>4096</dim>
				</port>
			</output>
		</layer>
		<layer id="423" name="758" type="MatMul" version="opset1">
			<data transpose_a="false" transpose_b="true"/>
			<input>
				<port id="0">
					<dim>1</dim>
					<dim>384</dim>
					<dim>4096</dim>
				</port>
				<port id="1">
					<dim>1024</dim>
					<dim>4096</dim>
				</port>
			</input>
			<output>
				<port id="2" names="758" precision="FP16">
					<dim>1</dim>
					<dim>384</dim>
					<dim>1024</dim>
				</port>
			</output>
		</layer>
		<layer id="424" name="bert.encoder.layer.2.output.dense.bias/EltwiseUnsqueeze46173_const" type="Const" version="opset1">
			<data element_type="f16" offset="139137204" shape="1,1,1024" size="2048"/>
			<output>
				<port id="0" names="bert.encoder.layer.2.output.dense.bias" precision="FP16">
					<dim>1</dim>
					<dim>1</dim>
					<dim>1024</dim>
				</port>
			</output>
		</layer>
		<layer id="425" name="759" type="Add" version="opset1">
			<data auto_broadcast="numpy"/>
			<input>
				<port id="0">
					<dim>1</dim>
					<dim>384</dim>
					<dim>1024</dim>
				</port>
				<port id="1">
					<dim>1</dim>
					<dim>1</dim>
					<dim>1024</dim>
				</port>
			</input>
			<output>
				<port id="2" names="759" precision="FP16">
					<dim>1</dim>
					<dim>384</dim>
					<dim>1024</dim>
				</port>
			</output>
		</layer>
		<layer id="426" name="760" type="Add" version="opset1">
			<data auto_broadcast="numpy"/>
			<input>
				<port id="0">
					<dim>1</dim>
					<dim>384</dim>
					<dim>1024</dim>
				</port>
				<port id="1">
					<dim>1</dim>
					<dim>384</dim>
					<dim>1024</dim>
				</port>
			</input>
			<output>
				<port id="2" names="760" precision="FP16">
					<dim>1</dim>
					<dim>384</dim>
					<dim>1024</dim>
				</port>
			</output>
		</layer>
		<layer id="427" name="4464_input_port_1/value/Output_0/Data__const" type="Const" version="opset1">
			<data element_type="i64" offset="63561756" shape="1" size="8"/>
			<output>
				<port id="0" precision="I64">
					<dim>1</dim>
				</port>
			</output>
		</layer>
		<layer id="428" name="769" type="MVN" version="opset6">
			<data eps="9.999999960041972e-13" eps_mode="inside_sqrt" normalize_variance="true"/>
			<input>
				<port id="0">
					<dim>1</dim>
					<dim>384</dim>
					<dim>1024</dim>
				</port>
				<port id="1">
					<dim>1</dim>
				</port>
			</input>
			<output>
				<port id="2" names="769" precision="FP16">
					<dim>1</dim>
					<dim>384</dim>
					<dim>1024</dim>
				</port>
			</output>
		</layer>
		<layer id="429" name="bert.encoder.layer.2.output.LayerNorm.weight/EltwiseUnsqueeze46177_const" type="Const" version="opset1">
			<data element_type="f16" offset="139139252" shape="1,1,1024" size="2048"/>
			<output>
				<port id="0" names="bert.encoder.layer.2.output.LayerNorm.weight" precision="FP16">
					<dim>1</dim>
					<dim>1</dim>
					<dim>1024</dim>
				</port>
			</output>
		</layer>
		<layer id="430" name="770" type="Multiply" version="opset1">
			<data auto_broadcast="numpy"/>
			<input>
				<port id="0">
					<dim>1</dim>
					<dim>384</dim>
					<dim>1024</dim>
				</port>
				<port id="1">
					<dim>1</dim>
					<dim>1</dim>
					<dim>1024</dim>
				</port>
			</input>
			<output>
				<port id="2" names="770" precision="FP16">
					<dim>1</dim>
					<dim>384</dim>
					<dim>1024</dim>
				</port>
			</output>
		</layer>
		<layer id="431" name="bert.encoder.layer.2.output.LayerNorm.bias/EltwiseUnsqueeze46181_const" type="Const" version="opset1">
			<data element_type="f16" offset="139141300" shape="1,1,1024" size="2048"/>
			<output>
				<port id="0" names="bert.encoder.layer.2.output.LayerNorm.bias" precision="FP16">
					<dim>1</dim>
					<dim>1</dim>
					<dim>1024</dim>
				</port>
			</output>
		</layer>
		<layer id="432" name="771" type="Add" version="opset1">
			<data auto_broadcast="numpy"/>
			<input>
				<port id="0">
					<dim>1</dim>
					<dim>384</dim>
					<dim>1024</dim>
				</port>
				<port id="1">
					<dim>1</dim>
					<dim>1</dim>
					<dim>1024</dim>
				</port>
			</input>
			<output>
				<port id="2" names="771" precision="FP16">
					<dim>1</dim>
					<dim>384</dim>
					<dim>1024</dim>
				</port>
			</output>
		</layer>
		<layer id="433" name="773/1_port_transpose70417_const" type="Const" version="opset1">
			<data element_type="f16" offset="139143348" shape="1024,1024" size="2097152"/>
			<output>
				<port id="0" names="772" precision="FP16">
					<dim>1024</dim>
					<dim>1024</dim>
				</port>
			</output>
		</layer>
		<layer id="434" name="773" type="MatMul" version="opset1">
			<data transpose_a="false" transpose_b="true"/>
			<input>
				<port id="0">
					<dim>1</dim>
					<dim>384</dim>
					<dim>1024</dim>
				</port>
				<port id="1">
					<dim>1024</dim>
					<dim>1024</dim>
				</port>
			</input>
			<output>
				<port id="2" names="773" precision="FP16">
					<dim>1</dim>
					<dim>384</dim>
					<dim>1024</dim>
				</port>
			</output>
		</layer>
		<layer id="435" name="bert.encoder.layer.3.attention.self.query.bias/EltwiseUnsqueeze46185_const" type="Const" version="opset1">
			<data element_type="f16" offset="141240500" shape="1,1,1024" size="2048"/>
			<output>
				<port id="0" names="bert.encoder.layer.3.attention.self.query.bias" precision="FP16">
					<dim>1</dim>
					<dim>1</dim>
					<dim>1024</dim>
				</port>
			</output>
		</layer>
		<layer id="436" name="774" type="Add" version="opset1">
			<data auto_broadcast="numpy"/>
			<input>
				<port id="0">
					<dim>1</dim>
					<dim>384</dim>
					<dim>1024</dim>
				</port>
				<port id="1">
					<dim>1</dim>
					<dim>1</dim>
					<dim>1024</dim>
				</port>
			</input>
			<output>
				<port id="2" names="774" precision="FP16">
					<dim>1</dim>
					<dim>384</dim>
					<dim>1024</dim>
				</port>
			</output>
		</layer>
		<layer id="437" name="782" type="ShapeOf" version="opset3">
			<data output_type="i64"/>
			<input>
				<port id="0">
					<dim>1</dim>
					<dim>384</dim>
					<dim>1024</dim>
				</port>
			</input>
			<output>
				<port id="1" names="782" precision="I64">
					<dim>3</dim>
				</port>
			</output>
		</layer>
		<layer id="438" name="7835114/Cast_1105019_const" type="Const" version="opset1">
			<data element_type="i32" offset="63557640" shape="" size="4"/>
			<output>
				<port id="0" names="781" precision="I32"/>
			</output>
		</layer>
		<layer id="439" name="7835114/Cast_2105021_const" type="Const" version="opset1">
			<data element_type="i64" offset="62509056" shape="" size="8"/>
			<output>
				<port id="0" precision="I64"/>
			</output>
		</layer>
		<layer id="440" name="7835114" type="Gather" version="opset1">
			<input>
				<port id="0">
					<dim>3</dim>
				</port>
				<port id="1"/>
				<port id="2"/>
			</input>
			<output>
				<port id="3" names="783" precision="I64"/>
			</output>
		</layer>
		<layer id="441" name="789/Dims/Output_0/Data__const" type="Const" version="opset1">
			<data element_type="i64" offset="62509056" shape="1" size="8"/>
			<output>
				<port id="0" precision="I64">
					<dim>1</dim>
				</port>
			</output>
		</layer>
		<layer id="442" name="789/Unsqueeze" type="Unsqueeze" version="opset1">
			<input>
				<port id="0"/>
				<port id="1">
					<dim>1</dim>
				</port>
			</input>
			<output>
				<port id="2" names="789" precision="I64">
					<dim>1</dim>
				</port>
			</output>
		</layer>
		<layer id="443" name="785" type="ShapeOf" version="opset3">
			<data output_type="i64"/>
			<input>
				<port id="0">
					<dim>1</dim>
					<dim>384</dim>
					<dim>1024</dim>
				</port>
			</input>
			<output>
				<port id="1" names="785" precision="I64">
					<dim>3</dim>
				</port>
			</output>
		</layer>
		<layer id="444" name="7865142/Cast_1105085_const" type="Const" version="opset1">
			<data element_type="i32" offset="63557644" shape="" size="4"/>
			<output>
				<port id="0" names="784" precision="I32"/>
			</output>
		</layer>
		<layer id="445" name="7865142/Cast_2105087_const" type="Const" version="opset1">
			<data element_type="i64" offset="62509056" shape="" size="8"/>
			<output>
				<port id="0" precision="I64"/>
			</output>
		</layer>
		<layer id="446" name="7865142" type="Gather" version="opset1">
			<input>
				<port id="0">
					<dim>3</dim>
				</port>
				<port id="1"/>
				<port id="2"/>
			</input>
			<output>
				<port id="3" names="786" precision="I64"/>
			</output>
		</layer>
		<layer id="447" name="790/Dims/Output_0/Data__const" type="Const" version="opset1">
			<data element_type="i64" offset="62509056" shape="1" size="8"/>
			<output>
				<port id="0" precision="I64">
					<dim>1</dim>
				</port>
			</output>
		</layer>
		<layer id="448" name="790/Unsqueeze" type="Unsqueeze" version="opset1">
			<input>
				<port id="0"/>
				<port id="1">
					<dim>1</dim>
				</port>
			</input>
			<output>
				<port id="2" names="790" precision="I64">
					<dim>1</dim>
				</port>
			</output>
		</layer>
		<layer id="449" name="791/Unsqueeze/Output_0/Data__const" type="Const" version="opset1">
			<data element_type="i64" offset="65665060" shape="1" size="8"/>
			<output>
				<port id="0" names="791" precision="I64">
					<dim>1</dim>
				</port>
			</output>
		</layer>
		<layer id="450" name="792/Unsqueeze/Output_0/Data__const" type="Const" version="opset1">
			<data element_type="i64" offset="65665068" shape="1" size="8"/>
			<output>
				<port id="0" names="792" precision="I64">
					<dim>1</dim>
				</port>
			</output>
		</layer>
		<layer id="451" name="793" type="Concat" version="opset1">
			<data axis="0"/>
			<input>
				<port id="0">
					<dim>1</dim>
				</port>
				<port id="1">
					<dim>1</dim>
				</port>
				<port id="2">
					<dim>1</dim>
				</port>
				<port id="3">
					<dim>1</dim>
				</port>
			</input>
			<output>
				<port id="4" names="793" precision="I64">
					<dim>4</dim>
				</port>
			</output>
		</layer>
		<layer id="452" name="794" type="Reshape" version="opset1">
			<data special_zero="true"/>
			<input>
				<port id="0">
					<dim>1</dim>
					<dim>384</dim>
					<dim>1024</dim>
				</port>
				<port id="1">
					<dim>4</dim>
				</port>
			</input>
			<output>
				<port id="2" names="794" precision="FP16">
					<dim>1</dim>
					<dim>384</dim>
					<dim>16</dim>
					<dim>64</dim>
				</port>
			</output>
		</layer>
		<layer id="453" name="795/Cast_1106113_const" type="Const" version="opset1">
			<data element_type="i64" offset="65665076" shape="4" size="32"/>
			<output>
				<port id="0" precision="I64">
					<dim>4</dim>
				</port>
			</output>
		</layer>
		<layer id="454" name="795" type="Transpose" version="opset1">
			<input>
				<port id="0">
					<dim>1</dim>
					<dim>384</dim>
					<dim>16</dim>
					<dim>64</dim>
				</port>
				<port id="1">
					<dim>4</dim>
				</port>
			</input>
			<output>
				<port id="2" names="795" precision="FP16">
					<dim>1</dim>
					<dim>16</dim>
					<dim>384</dim>
					<dim>64</dim>
				</port>
			</output>
		</layer>
		<layer id="455" name="776/1_port_transpose70213_const" type="Const" version="opset1">
			<data element_type="f16" offset="141242548" shape="1024,1024" size="2097152"/>
			<output>
				<port id="0" names="775" precision="FP16">
…
		<edge from-layer="2496" from-port="2" to-layer="2505" to-port="0"/>
		<edge from-layer="2502" from-port="2" to-layer="2505" to-port="1"/>
		<edge from-layer="2503" from-port="0" to-layer="2505" to-port="2"/>
		<edge from-layer="2504" from-port="0" to-layer="2505" to-port="3"/>
		<edge from-layer="2490" from-port="2" to-layer="2506" to-port="0"/>
		<edge from-layer="2505" from-port="4" to-layer="2506" to-port="1"/>
		<edge from-layer="2506" from-port="2" to-layer="2508" to-port="0"/>
		<edge from-layer="2507" from-port="0" to-layer="2508" to-port="1"/>
		<edge from-layer="2508" from-port="2" to-layer="2510" to-port="0"/>
		<edge from-layer="2509" from-port="0" to-layer="2510" to-port="1"/>
		<edge from-layer="2486" from-port="2" to-layer="2511" to-port="0"/>
		<edge from-layer="2510" from-port="2" to-layer="2511" to-port="1"/>
		<edge from-layer="2511" from-port="2" to-layer="2512" to-port="0"/>
		<edge from-layer="98" from-port="2" to-layer="2512" to-port="1"/>
		<edge from-layer="2512" from-port="2" to-layer="2513" to-port="0"/>
		<edge from-layer="2513" from-port="1" to-layer="2516" to-port="0"/>
		<edge from-layer="2514" from-port="0" to-layer="2516" to-port="1"/>
		<edge from-layer="2515" from-port="0" to-layer="2516" to-port="2"/>
		<edge from-layer="2516" from-port="3" to-layer="2518" to-port="0"/>
		<edge from-layer="2517" from-port="0" to-layer="2518" to-port="1"/>
		<edge from-layer="2518" from-port="2" to-layer="2520" to-port="0"/>
		<edge from-layer="2519" from-port="0" to-layer="2520" to-port="1"/>
		<edge from-layer="2512" from-port="2" to-layer="2521" to-port="0"/>
		<edge from-layer="2520" from-port="2" to-layer="2521" to-port="1"/>
		<edge from-layer="2521" from-port="2" to-layer="2522" to-port="0"/>
		<edge from-layer="2512" from-port="2" to-layer="2523" to-port="0"/>
		<edge from-layer="2522" from-port="1" to-layer="2524" to-port="0"/>
		<edge from-layer="2523" from-port="1" to-layer="2524" to-port="1"/>
		<edge from-layer="2464" from-port="2" to-layer="2526" to-port="0"/>
		<edge from-layer="2525" from-port="0" to-layer="2526" to-port="1"/>
		<edge from-layer="2526" from-port="2" to-layer="2528" to-port="0"/>
		<edge from-layer="2527" from-port="0" to-layer="2528" to-port="1"/>
		<edge from-layer="2528" from-port="2" to-layer="2529" to-port="0"/>
		<edge from-layer="2529" from-port="1" to-layer="2532" to-port="0"/>
		<edge from-layer="2530" from-port="0" to-layer="2532" to-port="1"/>
		<edge from-layer="2531" from-port="0" to-layer="2532" to-port="2"/>
		<edge from-layer="2532" from-port="3" to-layer="2534" to-port="0"/>
		<edge from-layer="2533" from-port="0" to-layer="2534" to-port="1"/>
		<edge from-layer="2528" from-port="2" to-layer="2535" to-port="0"/>
		<edge from-layer="2535" from-port="1" to-layer="2538" to-port="0"/>
		<edge from-layer="2536" from-port="0" to-layer="2538" to-port="1"/>
		<edge from-layer="2537" from-port="0" to-layer="2538" to-port="2"/>
		<edge from-layer="2538" from-port="3" to-layer="2540" to-port="0"/>
		<edge from-layer="2539" from-port="0" to-layer="2540" to-port="1"/>
		<edge from-layer="2534" from-port="2" to-layer="2543" to-port="0"/>
		<edge from-layer="2540" from-port="2" to-layer="2543" to-port="1"/>
		<edge from-layer="2541" from-port="0" to-layer="2543" to-port="2"/>
		<edge from-layer="2542" from-port="0" to-layer="2543" to-port="3"/>
		<edge from-layer="2528" from-port="2" to-layer="2544" to-port="0"/>
		<edge from-layer="2543" from-port="4" to-layer="2544" to-port="1"/>
		<edge from-layer="2544" from-port="2" to-layer="2546" to-port="0"/>
		<edge from-layer="2545" from-port="0" to-layer="2546" to-port="1"/>
		<edge from-layer="2524" from-port="2" to-layer="2547" to-port="0"/>
		<edge from-layer="2546" from-port="2" to-layer="2547" to-port="1"/>
		<edge from-layer="2547" from-port="2" to-layer="2549" to-port="0"/>
		<edge from-layer="2548" from-port="0" to-layer="2549" to-port="1"/>
		<edge from-layer="2549" from-port="2" to-layer="2550" to-port="0"/>
		<edge from-layer="2550" from-port="1" to-layer="2553" to-port="0"/>
		<edge from-layer="2551" from-port="0" to-layer="2553" to-port="1"/>
		<edge from-layer="2552" from-port="0" to-layer="2553" to-port="2"/>
		<edge from-layer="2553" from-port="3" to-layer="2555" to-port="0"/>
		<edge from-layer="2554" from-port="0" to-layer="2555" to-port="1"/>
		<edge from-layer="2549" from-port="2" to-layer="2556" to-port="0"/>
		<edge from-layer="2556" from-port="1" to-layer="2559" to-port="0"/>
		<edge from-layer="2557" from-port="0" to-layer="2559" to-port="1"/>
		<edge from-layer="2558" from-port="0" to-layer="2559" to-port="2"/>
		<edge from-layer="2559" from-port="3" to-layer="2561" to-port="0"/>
		<edge from-layer="2560" from-port="0" to-layer="2561" to-port="1"/>
		<edge from-layer="2555" from-port="2" to-layer="2563" to-port="0"/>
		<edge from-layer="2561" from-port="2" to-layer="2563" to-port="1"/>
		<edge from-layer="2562" from-port="0" to-layer="2563" to-port="2"/>
		<edge from-layer="2549" from-port="2" to-layer="2564" to-port="0"/>
		<edge from-layer="2563" from-port="3" to-layer="2564" to-port="1"/>
		<edge from-layer="2564" from-port="2" to-layer="2566" to-port="0"/>
		<edge from-layer="2565" from-port="0" to-layer="2566" to-port="1"/>
		<edge from-layer="2566" from-port="2" to-layer="2568" to-port="0"/>
		<edge from-layer="2567" from-port="0" to-layer="2568" to-port="1"/>
		<edge from-layer="2568" from-port="2" to-layer="2569" to-port="0"/>
		<edge from-layer="2464" from-port="2" to-layer="2569" to-port="1"/>
		<edge from-layer="2569" from-port="2" to-layer="2571" to-port="0"/>
		<edge from-layer="2570" from-port="0" to-layer="2571" to-port="1"/>
		<edge from-layer="2571" from-port="2" to-layer="2573" to-port="0"/>
		<edge from-layer="2572" from-port="0" to-layer="2573" to-port="1"/>
		<edge from-layer="2573" from-port="2" to-layer="2575" to-port="0"/>
		<edge from-layer="2574" from-port="0" to-layer="2575" to-port="1"/>
		<edge from-layer="2575" from-port="2" to-layer="2577" to-port="0"/>
		<edge from-layer="2576" from-port="0" to-layer="2577" to-port="1"/>
		<edge from-layer="2577" from-port="2" to-layer="2579" to-port="0"/>
		<edge from-layer="2578" from-port="0" to-layer="2579" to-port="1"/>
		<edge from-layer="2579" from-port="2" to-layer="2580" to-port="0"/>
		<edge from-layer="2580" from-port="1" to-layer="2582" to-port="0"/>
		<edge from-layer="2581" from-port="0" to-layer="2582" to-port="1"/>
		<edge from-layer="2582" from-port="2" to-layer="2584" to-port="0"/>
		<edge from-layer="2583" from-port="0" to-layer="2584" to-port="1"/>
		<edge from-layer="2584" from-port="2" to-layer="2585" to-port="0"/>
		<edge from-layer="2575" from-port="2" to-layer="2585" to-port="1"/>
		<edge from-layer="2585" from-port="2" to-layer="2587" to-port="0"/>
		<edge from-layer="2586" from-port="0" to-layer="2587" to-port="1"/>
		<edge from-layer="2587" from-port="2" to-layer="2589" to-port="0"/>
		<edge from-layer="2588" from-port="0" to-layer="2589" to-port="1"/>
		<edge from-layer="2589" from-port="2" to-layer="2591" to-port="0"/>
		<edge from-layer="2590" from-port="0" to-layer="2591" to-port="1"/>
		<edge from-layer="2591" from-port="2" to-layer="2593" to-port="0"/>
		<edge from-layer="2592" from-port="0" to-layer="2593" to-port="1"/>
		<edge from-layer="2593" from-port="2" to-layer="2595" to-port="0"/>
		<edge from-layer="2594" from-port="0" to-layer="2595" to-port="1"/>
		<edge from-layer="2595" from-port="2" to-layer="2596" to-port="0"/>
		<edge from-layer="2596" from-port="1" to-layer="2599" to-port="0"/>
		<edge from-layer="2597" from-port="0" to-layer="2599" to-port="1"/>
		<edge from-layer="2598" from-port="0" to-layer="2599" to-port="2"/>
		<edge from-layer="2599" from-port="3" to-layer="2601" to-port="0"/>
		<edge from-layer="2600" from-port="0" to-layer="2601" to-port="1"/>
		<edge from-layer="2595" from-port="2" to-layer="2602" to-port="0"/>
		<edge from-layer="2602" from-port="1" to-layer="2605" to-port="0"/>
		<edge from-layer="2603" from-port="0" to-layer="2605" to-port="1"/>
		<edge from-layer="2604" from-port="0" to-layer="2605" to-port="2"/>
		<edge from-layer="2605" from-port="3" to-layer="2607" to-port="0"/>
		<edge from-layer="2606" from-port="0" to-layer="2607" to-port="1"/>
		<edge from-layer="2601" from-port="2" to-layer="2610" to-port="0"/>
		<edge from-layer="2607" from-port="2" to-layer="2610" to-port="1"/>
		<edge from-layer="2608" from-port="0" to-layer="2610" to-port="2"/>
		<edge from-layer="2609" from-port="0" to-layer="2610" to-port="3"/>
		<edge from-layer="2595" from-port="2" to-layer="2611" to-port="0"/>
		<edge from-layer="2610" from-port="4" to-layer="2611" to-port="1"/>
		<edge from-layer="2611" from-port="2" to-layer="2613" to-port="0"/>
		<edge from-layer="2612" from-port="0" to-layer="2613" to-port="1"/>
		<edge from-layer="2591" from-port="2" to-layer="2615" to-port="0"/>
		<edge from-layer="2614" from-port="0" to-layer="2615" to-port="1"/>
		<edge from-layer="2615" from-port="2" to-layer="2617" to-port="0"/>
		<edge from-layer="2616" from-port="0" to-layer="2617" to-port="1"/>
		<edge from-layer="2617" from-port="2" to-layer="2618" to-port="0"/>
		<edge from-layer="2618" from-port="1" to-layer="2621" to-port="0"/>
		<edge from-layer="2619" from-port="0" to-layer="2621" to-port="1"/>
		<edge from-layer="2620" from-port="0" to-layer="2621" to-port="2"/>
		<edge from-layer="2621" from-port="3" to-layer="2623" to-port="0"/>
		<edge from-layer="2622" from-port="0" to-layer="2623" to-port="1"/>
		<edge from-layer="2617" from-port="2" to-layer="2624" to-port="0"/>
		<edge from-layer="2624" from-port="1" to-layer="2627" to-port="0"/>
		<edge from-layer="2625" from-port="0" to-layer="2627" to-port="1"/>
		<edge from-layer="2626" from-port="0" to-layer="2627" to-port="2"/>
		<edge from-layer="2627" from-port="3" to-layer="2629" to-port="0"/>
		<edge from-layer="2628" from-port="0" to-layer="2629" to-port="1"/>
		<edge from-layer="2623" from-port="2" to-layer="2632" to-port="0"/>
		<edge from-layer="2629" from-port="2" to-layer="2632" to-port="1"/>
		<edge from-layer="2630" from-port="0" to-layer="2632" to-port="2"/>
		<edge from-layer="2631" from-port="0" to-layer="2632" to-port="3"/>
		<edge from-layer="2617" from-port="2" to-layer="2633" to-port="0"/>
		<edge from-layer="2632" from-port="4" to-layer="2633" to-port="1"/>
		<edge from-layer="2633" from-port="2" to-layer="2635" to-port="0"/>
		<edge from-layer="2634" from-port="0" to-layer="2635" to-port="1"/>
		<edge from-layer="2635" from-port="2" to-layer="2637" to-port="0"/>
		<edge from-layer="2636" from-port="0" to-layer="2637" to-port="1"/>
		<edge from-layer="2613" from-port="2" to-layer="2638" to-port="0"/>
		<edge from-layer="2637" from-port="2" to-layer="2638" to-port="1"/>
		<edge from-layer="2638" from-port="2" to-layer="2639" to-port="0"/>
		<edge from-layer="98" from-port="2" to-layer="2639" to-port="1"/>
		<edge from-layer="2639" from-port="2" to-layer="2640" to-port="0"/>
		<edge from-layer="2640" from-port="1" to-layer="2643" to-port="0"/>
		<edge from-layer="2641" from-port="0" to-layer="2643" to-port="1"/>
		<edge from-layer="2642" from-port="0" to-layer="2643" to-port="2"/>
		<edge from-layer="2643" from-port="3" to-layer="2645" to-port="0"/>
		<edge from-layer="2644" from-port="0" to-layer="2645" to-port="1"/>
		<edge from-layer="2645" from-port="2" to-layer="2647" to-port="0"/>
		<edge from-layer="2646" from-port="0" to-layer="2647" to-port="1"/>
		<edge from-layer="2639" from-port="2" to-layer="2648" to-port="0"/>
		<edge from-layer="2647" from-port="2" to-layer="2648" to-port="1"/>
		<edge from-layer="2648" from-port="2" to-layer="2649" to-port="0"/>
		<edge from-layer="2639" from-port="2" to-layer="2650" to-port="0"/>
		<edge from-layer="2649" from-port="1" to-layer="2651" to-port="0"/>
		<edge from-layer="2650" from-port="1" to-layer="2651" to-port="1"/>
		<edge from-layer="2591" from-port="2" to-layer="2653" to-port="0"/>
		<edge from-layer="2652" from-port="0" to-layer="2653" to-port="1"/>
		<edge from-layer="2653" from-port="2" to-layer="2655" to-port="0"/>
		<edge from-layer="2654" from-port="0" to-layer="2655" to-port="1"/>
		<edge from-layer="2655" from-port="2" to-layer="2656" to-port="0"/>
		<edge from-layer="2656" from-port="1" to-layer="2659" to-port="0"/>
		<edge from-layer="2657" from-port="0" to-layer="2659" to-port="1"/>
		<edge from-layer="2658" from-port="0" to-layer="2659" to-port="2"/>
		<edge from-layer="2659" from-port="3" to-layer="2661" to-port="0"/>
		<edge from-layer="2660" from-port="0" to-layer="2661" to-port="1"/>
		<edge from-layer="2655" from-port="2" to-layer="2662" to-port="0"/>
		<edge from-layer="2662" from-port="1" to-layer="2665" to-port="0"/>
		<edge from-layer="2663" from-port="0" to-layer="2665" to-port="1"/>
		<edge from-layer="2664" from-port="0" to-layer="2665" to-port="2"/>
		<edge from-layer="2665" from-port="3" to-layer="2667" to-port="0"/>
		<edge from-layer="2666" from-port="0" to-layer="2667" to-port="1"/>
		<edge from-layer="2661" from-port="2" to-layer="2670" to-port="0"/>
		<edge from-layer="2667" from-port="2" to-layer="2670" to-port="1"/>
		<edge from-layer="2668" from-port="0" to-layer="2670" to-port="2"/>
		<edge from-layer="2669" from-port="0" to-layer="2670" to-port="3"/>
		<edge from-layer="2655" from-port="2" to-layer="2671" to-port="0"/>
		<edge from-layer="2670" from-port="4" to-layer="2671" to-port="1"/>
		<edge from-layer="2671" from-port="2" to-layer="2673" to-port="0"/>
		<edge from-layer="2672" from-port="0" to-layer="2673" to-port="1"/>
		<edge from-layer="2651" from-port="2" to-layer="2674" to-port="0"/>
		<edge from-layer="2673" from-port="2" to-layer="2674" to-port="1"/>
		<edge from-layer="2674" from-port="2" to-layer="2676" to-port="0"/>
		<edge from-layer="2675" from-port="0" to-layer="2676" to-port="1"/>
		<edge from-layer="2676" from-port="2" to-layer="2677" to-port="0"/>
		<edge from-layer="2677" from-port="1" to-layer="2680" to-port="0"/>
		<edge from-layer="2678" from-port="0" to-layer="2680" to-port="1"/>
		<edge from-layer="2679" from-port="0" to-layer="2680" to-port="2"/>
		<edge from-layer="2680" from-port="3" to-layer="2682" to-port="0"/>
		<edge from-layer="2681" from-port="0" to-layer="2682" to-port="1"/>
		<edge from-layer="2676" from-port="2" to-layer="2683" to-port="0"/>
		<edge from-layer="2683" from-port="1" to-layer="2686" to-port="0"/>
		<edge from-layer="2684" from-port="0" to-layer="2686" to-port="1"/>
		<edge from-layer="2685" from-port="0" to-layer="2686" to-port="2"/>
		<edge from-layer="2686" from-port="3" to-layer="2688" to-port="0"/>
		<edge from-layer="2687" from-port="0" to-layer="2688" to-port="1"/>
		<edge from-layer="2682" from-port="2" to-layer="2690" to-port="0"/>
		<edge from-layer="2688" from-port="2" to-layer="2690" to-port="1"/>
		<edge from-layer="2689" from-port="0" to-layer="2690" to-port="2"/>
		<edge from-layer="2676" from-port="2" to-layer="2691" to-port="0"/>
		<edge from-layer="2690" from-port="3" to-layer="2691" to-port="1"/>
		<edge from-layer="2691" from-port="2" to-layer="2693" to-port="0"/>
		<edge from-layer="2692" from-port="0" to-layer="2693" to-port="1"/>
		<edge from-layer="2693" from-port="2" to-layer="2695" to-port="0"/>
		<edge from-layer="2694" from-port="0" to-layer="2695" to-port="1"/>
		<edge from-layer="2695" from-port="2" to-layer="2696" to-port="0"/>
		<edge from-layer="2591" from-port="2" to-layer="2696" to-port="1"/>
		<edge from-layer="2696" from-port="2" to-layer="2698" to-port="0"/>
		<edge from-layer="2697" from-port="0" to-layer="2698" to-port="1"/>
		<edge from-layer="2698" from-port="2" to-layer="2700" to-port="0"/>
		<edge from-layer="2699" from-port="0" to-layer="2700" to-port="1"/>
		<edge from-layer="2700" from-port="2" to-layer="2702" to-port="0"/>
		<edge from-layer="2701" from-port="0" to-layer="2702" to-port="1"/>
		<edge from-layer="2702" from-port="2" to-layer="2704" to-port="0"/>
		<edge from-layer="2703" from-port="0" to-layer="2704" to-port="1"/>
		<edge from-layer="2704" from-port="2" to-layer="2706" to-port="0"/>
		<edge from-layer="2705" from-port="0" to-layer="2706" to-port="1"/>
		<edge from-layer="2706" from-port="2" to-layer="2707" to-port="0"/>
		<edge from-layer="2707" from-port="1" to-layer="2709" to-port="0"/>
		<edge from-layer="2708" from-port="0" to-layer="2709" to-port="1"/>
		<edge from-layer="2709" from-port="2" to-layer="2711" to-port="0"/>
		<edge from-layer="2710" from-port="0" to-layer="2711" to-port="1"/>
		<edge from-layer="2711" from-port="2" to-layer="2712" to-port="0"/>
		<edge from-layer="2702" from-port="2" to-layer="2712" to-port="1"/>
		<edge from-layer="2712" from-port="2" to-layer="2714" to-port="0"/>
		<edge from-layer="2713" from-port="0" to-layer="2714" to-port="1"/>
		<edge from-layer="2714" from-port="2" to-layer="2716" to-port="0"/>
		<edge from-layer="2715" from-port="0" to-layer="2716" to-port="1"/>
		<edge from-layer="2716" from-port="2" to-layer="2718" to-port="0"/>
		<edge from-layer="2717" from-port="0" to-layer="2718" to-port="1"/>
		<edge from-layer="2718" from-port="2" to-layer="2720" to-port="0"/>
		<edge from-layer="2719" from-port="0" to-layer="2720" to-port="1"/>
		<edge from-layer="2720" from-port="2" to-layer="2722" to-port="0"/>
		<edge from-layer="2721" from-port="0" to-layer="2722" to-port="1"/>
		<edge from-layer="2722" from-port="2" to-layer="2723" to-port="0"/>
		<edge from-layer="2723" from-port="1" to-layer="2726" to-port="0"/>
		<edge from-layer="2724" from-port="0" to-layer="2726" to-port="1"/>
		<edge from-layer="2725" from-port="0" to-layer="2726" to-port="2"/>
		<edge from-layer="2726" from-port="3" to-layer="2728" to-port="0"/>
		<edge from-layer="2727" from-port="0" to-layer="2728" to-port="1"/>
		<edge from-layer="2722" from-port="2" to-layer="2729" to-port="0"/>
		<edge from-layer="2729" from-port="1" to-layer="2732" to-port="0"/>
		<edge from-layer="2730" from-port="0" to-layer="2732" to-port="1"/>
		<edge from-layer="2731" from-port="0" to-layer="2732" to-port="2"/>
		<edge from-layer="2732" from-port="3" to-layer="2734" to-port="0"/>
		<edge from-layer="2733" from-port="0" to-layer="2734" to-port="1"/>
		<edge from-layer="2728" from-port="2" to-layer="2737" to-port="0"/>
		<edge from-layer="2734" from-port="2" to-layer="2737" to-port="1"/>
		<edge from-layer="2735" from-port="0" to-layer="2737" to-port="2"/>
		<edge from-layer="2736" from-port="0" to-layer="2737" to-port="3"/>
		<edge from-layer="2722" from-port="2" to-layer="2738" to-port="0"/>
		<edge from-layer="2737" from-port="4" to-layer="2738" to-port="1"/>
		<edge from-layer="2738" from-port="2" to-layer="2740" to-port="0"/>
		<edge from-layer="2739" from-port="0" to-layer="2740" to-port="1"/>
		<edge from-layer="2718" from-port="2" to-layer="2742" to-port="0"/>
		<edge from-layer="2741" from-port="0" to-layer="2742" to-port="1"/>
		<edge from-layer="2742" from-port="2" to-layer="2744" to-port="0"/>
		<edge from-layer="2743" from-port="0" to-layer="2744" to-port="1"/>
		<edge from-layer="2744" from-port="2" to-layer="2745" to-port="0"/>
		<edge from-layer="2745" from-port="1" to-layer="2748" to-port="0"/>
		<edge from-layer="2746" from-port="0" to-layer="2748" to-port="1"/>
		<edge from-layer="2747" from-port="0" to-layer="2748" to-port="2"/>
		<edge from-layer="2748" from-port="3" to-layer="2750" to-port="0"/>
		<edge from-layer="2749" from-port="0" to-layer="2750" to-port="1"/>
		<edge from-layer="2744" from-port="2" to-layer="2751" to-port="0"/>
		<edge from-layer="2751" from-port="1" to-layer="2754" to-port="0"/>
		<edge from-layer="2752" from-port="0" to-layer="2754" to-port="1"/>
		<edge from-layer="2753" from-port="0" to-layer="2754" to-port="2"/>
		<edge from-layer="2754" from-port="3" to-layer="2756" to-port="0"/>
		<edge from-layer="2755" from-port="0" to-layer="2756" to-port="1"/>
		<edge from-layer="2750" from-port="2" to-layer="2759" to-port="0"/>
		<edge from-layer="2756" from-port="2" to-layer="2759" to-port="1"/>
		<edge from-layer="2757" from-port="0" to-layer="2759" to-port="2"/>
		<edge from-layer="2758" from-port="0" to-layer="2759" to-port="3"/>
		<edge from-layer="2744" from-port="2" to-layer="2760" to-port="0"/>
		<edge from-layer="2759" from-port="4" to-layer="2760" to-port="1"/>
		<edge from-layer="2760" from-port="2" to-layer="2762" to-port="0"/>
		<edge from-layer="2761" from-port="0" to-layer="2762" to-port="1"/>
		<edge from-layer="2762" from-port="2" to-layer="2764" to-port="0"/>
		<edge from-layer="2763" from-port="0" to-layer="2764" to-port="1"/>
		<edge from-layer="2740" from-port="2" to-layer="2765" to-port="0"/>
		<edge from-layer="2764" from-port="2" to-layer="2765" to-port="1"/>
		<edge from-layer="2765" from-port="2" to-layer="2766" to-port="0"/>
		<edge from-layer="98" from-port="2" to-layer="2766" to-port="1"/>
		<edge from-layer="2766" from-port="2" to-layer="2767" to-port="0"/>
		<edge from-layer="2767" from-port="1" to-layer="2770" to-port="0"/>
		<edge from-layer="2768" from-port="0" to-layer="2770" to-port="1"/>
		<edge from-layer="2769" from-port="0" to-layer="2770" to-port="2"/>
		<edge from-layer="2770" from-port="3" to-layer="2772" to-port="0"/>
		<edge from-layer="2771" from-port="0" to-layer="2772" to-port="1"/>
		<edge from-layer="2772" from-port="2" to-layer="2774" to-port="0"/>
		<edge from-layer="2773" from-port="0" to-layer="2774" to-port="1"/>
		<edge from-layer="2766" from-port="2" to-layer="2775" to-port="0"/>
		<edge from-layer="2774" from-port="2" to-layer="2775" to-port="1"/>
		<edge from-layer="2775" from-port="2" to-layer="2776" to-port="0"/>
		<edge from-layer="2766" from-port="2" to-layer="2777" to-port="0"/>
		<edge from-layer="2776" from-port="1" to-layer="2778" to-port="0"/>
		<edge from-layer="2777" from-port="1" to-layer="2778" to-port="1"/>
		<edge from-layer="2718" from-port="2" to-layer="2780" to-port="0"/>
		<edge from-layer="2779" from-port="0" to-layer="2780" to-port="1"/>
		<edge from-layer="2780" from-port="2" to-layer="2782" to-port="0"/>
		<edge from-layer="2781" from-port="0" to-layer="2782" to-port="1"/>
		<edge from-layer="2782" from-port="2" to-layer="2783" to-port="0"/>
		<edge from-layer="2783" from-port="1" to-layer="2786" to-port="0"/>
		<edge from-layer="2784" from-port="0" to-layer="2786" to-port="1"/>
		<edge from-layer="2785" from-port="0" to-layer="2786" to-port="2"/>
		<edge from-layer="2786" from-port="3" to-layer="2788" to-port="0"/>
		<edge from-layer="2787" from-port="0" to-layer="2788" to-port="1"/>
		<edge from-layer="2782" from-port="2" to-layer="2789" to-port="0"/>
		<edge from-layer="2789" from-port="1" to-layer="2792" to-port="0"/>
		<edge from-layer="2790" from-port="0" to-layer="2792" to-port="1"/>
		<edge from-layer="2791" from-port="0" to-layer="2792" to-port="2"/>
		<edge from-layer="2792" from-port="3" to-layer="2794" to-port="0"/>
		<edge from-layer="2793" from-port="0" to-layer="2794" to-port="1"/>
		<edge from-layer="2788" from-port="2" to-layer="2797" to-port="0"/>
		<edge from-layer="2794" from-port="2" to-layer="2797" to-port="1"/>
		<edge from-layer="2795" from-port="0" to-layer="2797" to-port="2"/>
		<edge from-layer="2796" from-port="0" to-layer="2797" to-port="3"/>
		<edge from-layer="2782" from-port="2" to-layer="2798" to-port="0"/>
		<edge from-layer="2797" from-port="4" to-layer="2798" to-port="1"/>
		<edge from-layer="2798" from-port="2" to-layer="2800" to-port="0"/>
		<edge from-layer="2799" from-port="0" to-layer="2800" to-port="1"/>
		<edge from-layer="2778" from-port="2" to-layer="2801" to-port="0"/>
		<edge from-layer="2800" from-port="2" to-layer="2801" to-port="1"/>
		<edge from-layer="2801" from-port="2" to-layer="2803" to-port="0"/>
		<edge from-layer="2802" from-port="0" to-layer="2803" to-port="1"/>
		<edge from-layer="2803" from-port="2" to-layer="2804" to-port="0"/>
		<edge from-layer="2804" from-port="1" to-layer="2807" to-port="0"/>
		<edge from-layer="2805" from-port="0" to-layer="2807" to-port="1"/>
		<edge from-layer="2806" from-port="0" to-layer="2807" to-port="2"/>
		<edge from-layer="2807" from-port="3" to-layer="2809" to-port="0"/>
		<edge from-layer="2808" from-port="0" to-layer="2809" to-port="1"/>
		<edge from-layer="2803" from-port="2" to-layer="2810" to-port="0"/>
		<edge from-layer="2810" from-port="1" to-layer="2813" to-port="0"/>
		<edge from-layer="2811" from-port="0" to-layer="2813" to-port="1"/>
		<edge from-layer="2812" from-port="0" to-layer="2813" to-port="2"/>
		<edge from-layer="2813" from-port="3" to-layer="2815" to-port="0"/>
		<edge from-layer="2814" from-port="0" to-layer="2815" to-port="1"/>
		<edge from-layer="2809" from-port="2" to-layer="2817" to-port="0"/>
		<edge from-layer="2815" from-port="2" to-layer="2817" to-port="1"/>
		<edge from-layer="2816" from-port="0" to-layer="2817" to-port="2"/>
		<edge from-layer="2803" from-port="2" to-layer="2818" to-port="0"/>
		<edge from-layer="2817" from-port="3" to-layer="2818" to-port="1"/>
		<edge from-layer="2818" from-port="2" to-layer="2820" to-port="0"/>
		<edge from-layer="2819" from-port="0" to-layer="2820" to-port="1"/>
		<edge from-layer="2820" from-port="2" to-layer="2822" to-port="0"/>
		<edge from-layer="2821" from-port="0" to-layer="2822" to-port="1"/>
		<edge from-layer="2822" from-port="2" to-layer="2823" to-port="0"/>
		<edge from-layer="2718" from-port="2" to-layer="2823" to-port="1"/>
		<edge from-layer="2823" from-port="2" to-layer="2825" to-port="0"/>
		<edge from-layer="2824" from-port="0" to-layer="2825" to-port="1"/>
		<edge from-layer="2825" from-port="2" to-layer="2827" to-port="0"/>
		<edge from-layer="2826" from-port="0" to-layer="2827" to-port="1"/>
		<edge from-layer="2827" from-port="2" to-layer="2829" to-port="0"/>
		<edge from-layer="2828" from-port="0" to-layer="2829" to-port="1"/>
		<edge from-layer="2829" from-port="2" to-layer="2831" to-port="0"/>
		<edge from-layer="2830" from-port="0" to-layer="2831" to-port="1"/>
		<edge from-layer="2831" from-port="2" to-layer="2833" to-port="0"/>
		<edge from-layer="2832" from-port="0" to-layer="2833" to-port="1"/>
		<edge from-layer="2833" from-port="2" to-layer="2834" to-port="0"/>
		<edge from-layer="2834" from-port="1" to-layer="2836" to-port="0"/>
		<edge from-layer="2835" from-port="0" to-layer="2836" to-port="1"/>
		<edge from-layer="2836" from-port="2" to-layer="2838" to-port="0"/>
		<edge from-layer="2837" from-port="0" to-layer="2838" to-port="1"/>
		<edge from-layer="2838" from-port="2" to-layer="2839" to-port="0"/>
		<edge from-layer="2829" from-port="2" to-layer="2839" to-port="1"/>
		<edge from-layer="2839" from-port="2" to-layer="2841" to-port="0"/>
		<edge from-layer="2840" from-port="0" to-layer="2841" to-port="1"/>
		<edge from-layer="2841" from-port="2" to-layer="2843" to-port="0"/>
		<edge from-layer="2842" from-port="0" to-layer="2843" to-port="1"/>
		<edge from-layer="2843" from-port="2" to-layer="2845" to-port="0"/>
		<edge from-layer="2844" from-port="0" to-layer="2845" to-port="1"/>
		<edge from-layer="2845" from-port="2" to-layer="2847" to-port="0"/>
		<edge from-layer="2846" from-port="0" to-layer="2847" to-port="1"/>
		<edge from-layer="2847" from-port="2" to-layer="2849" to-port="0"/>
		<edge from-layer="2848" from-port="0" to-layer="2849" to-port="1"/>
		<edge from-layer="2849" from-port="2" to-layer="2850" to-port="0"/>
		<edge from-layer="2850" from-port="1" to-layer="2853" to-port="0"/>
		<edge from-layer="2851" from-port="0" to-layer="2853" to-port="1"/>
		<edge from-layer="2852" from-port="0" to-layer="2853" to-port="2"/>
		<edge from-layer="2853" from-port="3" to-layer="2855" to-port="0"/>
		<edge from-layer="2854" from-port="0" to-layer="2855" to-port="1"/>
		<edge from-layer="2849" from-port="2" to-layer="2856" to-port="0"/>
		<edge from-layer="2856" from-port="1" to-layer="2859" to-port="0"/>
		<edge from-layer="2857" from-port="0" to-layer="2859" to-port="1"/>
		<edge from-layer="2858" from-port="0" to-layer="2859" to-port="2"/>
		<edge from-layer="2859" from-port="3" to-layer="2861" to-port="0"/>
		<edge from-layer="2860" from-port="0" to-layer="2861" to-port="1"/>
		<edge from-layer="2855" from-port="2" to-layer="2864" to-port="0"/>
		<edge from-layer="2861" from-port="2" to-layer="2864" to-port="1"/>
		<edge from-layer="2862" from-port="0" to-layer="2864" to-port="2"/>
		<edge from-layer="2863" from-port="0" to-layer="2864" to-port="3"/>
		<edge from-layer="2849" from-port="2" to-layer="2865" to-port="0"/>
		<edge from-layer="2864" from-port="4" to-layer="2865" to-port="1"/>
		<edge from-layer="2865" from-port="2" to-layer="2867" to-port="0"/>
		<edge from-layer="2866" from-port="0" to-layer="2867" to-port="1"/>
		<edge from-layer="2845" from-port="2" to-layer="2869" to-port="0"/>
		<edge from-layer="2868" from-port="0" to-layer="2869" to-port="1"/>
		<edge from-layer="2869" from-port="2" to-layer="2871" to-port="0"/>
		<edge from-layer="2870" from-port="0" to-layer="2871" to-port="1"/>
		<edge from-layer="2871" from-port="2" to-layer="2872" to-port="0"/>
		<edge from-layer="2872" from-port="1" to-layer="2875" to-port="0"/>
		<edge from-layer="2873" from-port="0" to-layer="2875" to-port="1"/>
		<edge from-layer="2874" from-port="0" to-layer="2875" to-port="2"/>
		<edge from-layer="2875" from-port="3" to-layer="2877" to-port="0"/>
		<edge from-layer="2876" from-port="0" to-layer="2877" to-port="1"/>
		<edge from-layer="2871" from-port="2" to-layer="2878" to-port="0"/>
		<edge from-layer="2878" from-port="1" to-layer="2881" to-port="0"/>
		<edge from-layer="2879" from-port="0" to-layer="2881" to-port="1"/>
		<edge from-layer="2880" from-port="0" to-layer="2881" to-port="2"/>
		<edge from-layer="2881" from-port="3" to-layer="2883" to-port="0"/>
		<edge from-layer="2882" from-port="0" to-layer="2883" to-port="1"/>
		<edge from-layer="2877" from-port="2" to-layer="2886" to-port="0"/>
		<edge from-layer="2883" from-port="2" to-layer="2886" to-port="1"/>
		<edge from-layer="2884" from-port="0" to-layer="2886" to-port="2"/>
		<edge from-layer="2885" from-port="0" to-layer="2886" to-port="3"/>
		<edge from-layer="2871" from-port="2" to-layer="2887" to-port="0"/>
		<edge from-layer="2886" from-port="4" to-layer="2887" to-port="1"/>
		<edge from-layer="2887" from-port="2" to-layer="2889" to-port="0"/>
		<edge from-layer="2888" from-port="0" to-layer="2889" to-port="1"/>
		<edge from-layer="2889" from-port="2" to-layer="2891" to-port="0"/>
		<edge from-layer="2890" from-port="0" to-layer="2891" to-port="1"/>
		<edge from-layer="2867" from-port="2" to-layer="2892" to-port="0"/>
		<edge from-layer="2891" from-port="2" to-layer="2892" to-port="1"/>
		<edge from-layer="2892" from-port="2" to-layer="2893" to-port="0"/>
		<edge from-layer="98" from-port="2" to-layer="2893" to-port="1"/>
		<edge from-layer="2893" from-port="2" to-layer="2894" to-port="0"/>
		<edge from-layer="2894" from-port="1" to-layer="2897" to-port="0"/>
		<edge from-layer="2895" from-port="0" to-layer="2897" to-port="1"/>
		<edge from-layer="2896" from-port="0" to-layer="2897" to-port="2"/>
		<edge from-layer="2897" from-port="3" to-layer="2899" to-port="0"/>
		<edge from-layer="2898" from-port="0" to-layer="2899" to-port="1"/>
		<edge from-layer="2899" from-port="2" to-layer="2901" to-port="0"/>
		<edge from-layer="2900" from-port="0" to-layer="2901" to-port="1"/>
		<edge from-layer="2893" from-port="2" to-layer="2902" to-port="0"/>
		<edge from-layer="2901" from-port="2" to-layer="2902" to-port="1"/>
		<edge from-layer="2902" from-port="2" to-layer="2903" to-port="0"/>
		<edge from-layer="2893" from-port="2" to-layer="2904" to-port="0"/>
		<edge from-layer="2903" from-port="1" to-layer="2905" to-port="0"/>
		<edge from-layer="2904" from-port="1" to-layer="2905" to-port="1"/>
		<edge from-layer="2845" from-port="2" to-layer="2907" to-port="0"/>
		<edge from-layer="2906" from-port="0" to-layer="2907" to-port="1"/>
		<edge from-layer="2907" from-port="2" to-layer="2909" to-port="0"/>
		<edge from-layer="2908" from-port="0" to-layer="2909" to-port="1"/>
		<edge from-layer="2909" from-port="2" to-layer="2910" to-port="0"/>
		<edge from-layer="2910" from-port="1" to-layer="2913" to-port="0"/>
		<edge from-layer="2911" from-port="0" to-layer="2913" to-port="1"/>
		<edge from-layer="2912" from-port="0" to-layer="2913" to-port="2"/>
		<edge from-layer="2913" from-port="3" to-layer="2915" to-port="0"/>
		<edge from-layer="2914" from-port="0" to-layer="2915" to-port="1"/>
		<edge from-layer="2909" from-port="2" to-layer="2916" to-port="0"/>
		<edge from-layer="2916" from-port="1" to-layer="2919" to-port="0"/>
		<edge from-layer="2917" from-port="0" to-layer="2919" to-port="1"/>
		<edge from-layer="2918" from-port="0" to-layer="2919" to-port="2"/>
		<edge from-layer="2919" from-port="3" to-layer="2921" to-port="0"/>
		<edge from-layer="2920" from-port="0" to-layer="2921" to-port="1"/>
		<edge from-layer="2915" from-port="2" to-layer="2924" to-port="0"/>
		<edge from-layer="2921" from-port="2" to-layer="2924" to-port="1"/>
		<edge from-layer="2922" from-port="0" to-layer="2924" to-port="2"/>
		<edge from-layer="2923" from-port="0" to-layer="2924" to-port="3"/>
		<edge from-layer="2909" from-port="2" to-layer="2925" to-port="0"/>
		<edge from-layer="2924" from-port="4" to-layer="2925" to-port="1"/>
		<edge from-layer="2925" from-port="2" to-layer="2927" to-port="0"/>
		<edge from-layer="2926" from-port="0" to-layer="2927" to-port="1"/>
		<edge from-layer="2905" from-port="2" to-layer="2928" to-port="0"/>
		<edge from-layer="2927" from-port="2" to-layer="2928" to-port="1"/>
		<edge from-layer="2928" from-port="2" to-layer="2930" to-port="0"/>
		<edge from-layer="2929" from-port="0" to-layer="2930" to-port="1"/>
		<edge from-layer="2930" from-port="2" to-layer="2931" to-port="0"/>
		<edge from-layer="2931" from-port="1" to-layer="2934" to-port="0"/>
		<edge from-layer="2932" from-port="0" to-layer="2934" to-port="1"/>
		<edge from-layer="2933" from-port="0" to-layer="2934" to-port="2"/>
		<edge from-layer="2934" from-port="3" to-layer="2936" to-port="0"/>
		<edge from-layer="2935" from-port="0" to-layer="2936" to-port="1"/>
		<edge from-layer="2930" from-port="2" to-layer="2937" to-port="0"/>
		<edge from-layer="2937" from-port="1" to-layer="2940" to-port="0"/>
		<edge from-layer="2938" from-port="0" to-layer="2940" to-port="1"/>
		<edge from-layer="2939" from-port="0" to-layer="2940" to-port="2"/>
		<edge from-layer="2940" from-port="3" to-layer="2942" to-port="0"/>
		<edge from-layer="2941" from-port="0" to-layer="2942" to-port="1"/>
		<edge from-layer="2936" from-port="2" to-layer="2944" to-port="0"/>
		<edge from-layer="2942" from-port="2" to-layer="2944" to-port="1"/>
		<edge from-layer="2943" from-port="0" to-layer="2944" to-port="2"/>
		<edge from-layer="2930" from-port="2" to-layer="2945" to-port="0"/>
		<edge from-layer="2944" from-port="3" to-layer="2945" to-port="1"/>
		<edge from-layer="2945" from-port="2" to-layer="2947" to-port="0"/>
		<edge from-layer="2946" from-port="0" to-layer="2947" to-port="1"/>
		<edge from-layer="2947" from-port="2" to-layer="2949" to-port="0"/>
		<edge from-layer="2948" from-port="0" to-layer="2949" to-port="1"/>
		<edge from-layer="2949" from-port="2" to-layer="2950" to-port="0"/>
		<edge from-layer="2845" from-port="2" to-layer="2950" to-port="1"/>
		<edge from-layer="2950" from-port="2" to-layer="2952" to-port="0"/>
		<edge from-layer="2951" from-port="0" to-layer="2952" to-port="1"/>
		<edge from-layer="2952" from-port="2" to-layer="2954" to-port="0"/>
		<edge from-layer="2953" from-port="0" to-layer="2954" to-port="1"/>
		<edge from-layer="2954" from-port="2" to-layer="2956" to-port="0"/>
		<edge from-layer="2955" from-port="0" to-layer="2956" to-port="1"/>
		<edge from-layer="2956" from-port="2" to-layer="2958" to-port="0"/>
		<edge from-layer="2957" from-port="0" to-layer="2958" to-port="1"/>
		<edge from-layer="2958" from-port="2" to-layer="2960" to-port="0"/>
		<edge from-layer="2959" from-port="0" to-layer="2960" to-port="1"/>
		<edge from-layer="2960" from-port="2" to-layer="2961" to-port="0"/>
		<edge from-layer="2961" from-port="1" to-layer="2963" to-port="0"/>
		<edge from-layer="2962" from-port="0" to-layer="2963" to-port="1"/>
		<edge from-layer="2963" from-port="2" to-layer="2965" to-port="0"/>
		<edge from-layer="2964" from-port="0" to-layer="2965" to-port="1"/>
		<edge from-layer="2965" from-port="2" to-layer="2966" to-port="0"/>
		<edge from-layer="2956" from-port="2" to-layer="2966" to-port="1"/>
		<edge from-layer="2966" from-port="2" to-layer="2968" to-port="0"/>
		<edge from-layer="2967" from-port="0" to-layer="2968" to-port="1"/>
		<edge from-layer="2968" from-port="2" to-layer="2970" to-port="0"/>
		<edge from-layer="2969" from-port="0" to-layer="2970" to-port="1"/>
		<edge from-layer="2970" from-port="2" to-layer="2972" to-port="0"/>
		<edge from-layer="2971" from-port="0" to-layer="2972" to-port="1"/>
		<edge from-layer="2972" from-port="2" to-layer="2974" to-port="0"/>
		<edge from-layer="2973" from-port="0" to-layer="2974" to-port="1"/>
		<edge from-layer="2974" from-port="2" to-layer="2976" to-port="0"/>
		<edge from-layer="2975" from-port="0" to-layer="2976" to-port="1"/>
		<edge from-layer="2976" from-port="2" to-layer="2977" to-port="0"/>
		<edge from-layer="2977" from-port="1" to-layer="2980" to-port="0"/>
		<edge from-layer="2978" from-port="0" to-layer="2980" to-port="1"/>
		<edge from-layer="2979" from-port="0" to-layer="2980" to-port="2"/>
		<edge from-layer="2980" from-port="3" to-layer="2982" to-port="0"/>
		<edge from-layer="2981" from-port="0" to-layer="2982" to-port="1"/>
		<edge from-layer="2976" from-port="2" to-layer="2983" to-port="0"/>
		<edge from-layer="2983" from-port="1" to-layer="2986" to-port="0"/>
		<edge from-layer="2984" from-port="0" to-layer="2986" to-port="1"/>
		<edge from-layer="2985" from-port="0" to-layer="2986" to-port="2"/>
		<edge from-layer="2986" from-port="3" to-layer="2988" to-port="0"/>
		<edge from-layer="2987" from-port="0" to-layer="2988" to-port="1"/>
		<edge from-layer="2982" from-port="2" to-layer="2991" to-port="0"/>
		<edge from-layer="2988" from-port="2" to-layer="2991" to-port="1"/>
		<edge from-layer="2989" from-port="0" to-layer="2991" to-port="2"/>
		<edge from-layer="2990" from-port="0" to-layer="2991" to-port="3"/>
		<edge from-layer="2976" from-port="2" to-layer="2992" to-port="0"/>
		<edge from-layer="2991" from-port="4" to-layer="2992" to-port="1"/>
		<edge from-layer="2992" from-port="2" to-layer="2994" to-port="0"/>
		<edge from-layer="2993" from-port="0" to-layer="2994" to-port="1"/>
		<edge from-layer="2972" from-port="2" to-layer="2996" to-port="0"/>
		<edge from-layer="2995" from-port="0" to-layer="2996" to-port="1"/>
		<edge from-layer="2996" from-port="2" to-layer="2998" to-port="0"/>
		<edge from-layer="2997" from-port="0" to-layer="2998" to-port="1"/>
		<edge from-layer="2998" from-port="2" to-layer="2999" to-port="0"/>
		<edge from-layer="2999" from-port="1" to-layer="3002" to-port="0"/>
		<edge from-layer="3000" from-port="0" to-layer="3002" to-port="1"/>
		<edge from-layer="3001" from-port="0" to-layer="3002" to-port="2"/>
		<edge from-layer="3002" from-port="3" to-layer="3004" to-port="0"/>
		<edge from-layer="3003" from-port="0" to-layer="3004" to-port="1"/>
		<edge from-layer="2998" from-port="2" to-layer="3005" to-port="0"/>
		<edge from-layer="3005" from-port="1" to-layer="3008" to-port="0"/>
		<edge from-layer="3006" from-port="0" to-layer="3008" to-port="1"/>
		<edge from-layer="3007" from-port="0" to-layer="3008" to-port="2"/>
		<edge from-layer="3008" from-port="3" to-layer="3010" to-port="0"/>
		<edge from-layer="3009" from-port="0" to-layer="3010" to-port="1"/>
		<edge from-layer="3004" from-port="2" to-layer="3013" to-port="0"/>
		<edge from-layer="3010" from-port="2" to-layer="3013" to-port="1"/>
		<edge from-layer="3011" from-port="0" to-layer="3013" to-port="2"/>
		<edge from-layer="3012" from-port="0" to-layer="3013" to-port="3"/>
		<edge from-layer="2998" from-port="2" to-layer="3014" to-port="0"/>
		<edge from-layer="3013" from-port="4" to-layer="3014" to-port="1"/>
		<edge from-layer="3014" from-port="2" to-layer="3016" to-port="0"/>
		<edge from-layer="3015" from-port="0" to-layer="3016" to-port="1"/>
		<edge from-layer="3016" from-port="2" to-layer="3018" to-port="0"/>
		<edge from-layer="3017" from-port="0" to-layer="3018" to-port="1"/>
		<edge from-layer="2994" from-port="2" to-layer="3019" to-port="0"/>
		<edge from-layer="3018" from-port="2" to-layer="3019" to-port="1"/>
		<edge from-layer="3019" from-port="2" to-layer="3020" to-port="0"/>
		<edge from-layer="98" from-port="2" to-layer="3020" to-port="1"/>
		<edge from-layer="3020" from-port="2" to-layer="3021" to-port="0"/>
		<edge from-layer="3021" from-port="1" to-layer="3024" to-port="0"/>
		<edge from-layer="3022" from-port="0" to-layer="3024" to-port="1"/>
		<edge from-layer="3023" from-port="0" to-layer="3024" to-port="2"/>
		<edge from-layer="3024" from-port="3" to-layer="3026" to-port="0"/>
		<edge from-layer="3025" from-port="0" to-layer="3026" to-port="1"/>
		<edge from-layer="3026" from-port="2" to-layer="3028" to-port="0"/>
		<edge from-layer="3027" from-port="0" to-layer="3028" to-port="1"/>
		<edge from-layer="3020" from-port="2" to-layer="3029" to-port="0"/>
		<edge from-layer="3028" from-port="2" to-layer="3029" to-port="1"/>
		<edge from-layer="3029" from-port="2" to-layer="3030" to-port="0"/>
		<edge from-layer="3020" from-port="2" to-layer="3031" to-port="0"/>
		<edge from-layer="3030" from-port="1" to-layer="3032" to-port="0"/>
		<edge from-layer="3031" from-port="1" to-layer="3032" to-port="1"/>
		<edge from-layer="2972" from-port="2" to-layer="3034" to-port="0"/>
		<edge from-layer="3033" from-port="0" to-layer="3034" to-port="1"/>
		<edge from-layer="3034" from-port="2" to-layer="3036" to-port="0"/>
		<edge from-layer="3035" from-port="0" to-layer="3036" to-port="1"/>
		<edge from-layer="3036" from-port="2" to-layer="3037" to-port="0"/>
		<edge from-layer="3037" from-port="1" to-layer="3040" to-port="0"/>
		<edge from-layer="3038" from-port="0" to-layer="3040" to-port="1"/>
		<edge from-layer="3039" from-port="0" to-layer="3040" to-port="2"/>
		<edge from-layer="3040" from-port="3" to-layer="3042" to-port="0"/>
		<edge from-layer="3041" from-port="0" to-layer="3042" to-port="1"/>
		<edge from-layer="3036" from-port="2" to-layer="3043" to-port="0"/>
		<edge from-layer="3043" from-port="1" to-layer="3046" to-port="0"/>
		<edge from-layer="3044" from-port="0" to-layer="3046" to-port="1"/>
		<edge from-layer="3045" from-port="0" to-layer="3046" to-port="2"/>
		<edge from-layer="3046" from-port="3" to-layer="3048" to-port="0"/>
		<edge from-layer="3047" from-port="0" to-layer="3048" to-port="1"/>
		<edge from-layer="3042" from-port="2" to-layer="3051" to-port="0"/>
		<edge from-layer="3048" from-port="2" to-layer="3051" to-port="1"/>
		<edge from-layer="3049" from-port="0" to-layer="3051" to-port="2"/>
		<edge from-layer="3050" from-port="0" to-layer="3051" to-port="3"/>
		<edge from-layer="3036" from-port="2" to-layer="3052" to-port="0"/>
		<edge from-layer="3051" from-port="4" to-layer="3052" to-port="1"/>
		<edge from-layer="3052" from-port="2" to-layer="3054" to-port="0"/>
		<edge from-layer="3053" from-port="0" to-layer="3054" to-port="1"/>
		<edge from-layer="3032" from-port="2" to-layer="3055" to-port="0"/>
		<edge from-layer="3054" from-port="2" to-layer="3055" to-port="1"/>
		<edge from-layer="3055" from-port="2" to-layer="3057" to-port="0"/>
		<edge from-layer="3056" from-port="0" to-layer="3057" to-port="1"/>
		<edge from-layer="3057" from-port="2" to-layer="3058" to-port="0"/>
		<edge from-layer="3058" from-port="1" to-layer="3061" to-port="0"/>
		<edge from-layer="3059" from-port="0" to-layer="3061" to-port="1"/>
		<edge from-layer="3060" from-port="0" to-layer="3061" to-port="2"/>
		<edge from-layer="3061" from-port="3" to-layer="3063" to-port="0"/>
		<edge from-layer="3062" from-port="0" to-layer="3063" to-port="1"/>
		<edge from-layer="3057" from-port="2" to-layer="3064" to-port="0"/>
		<edge from-layer="3064" from-port="1" to-layer="3067" to-port="0"/>
		<edge from-layer="3065" from-port="0" to-layer="3067" to-port="1"/>
		<edge from-layer="3066" from-port="0" to-layer="3067" to-port="2"/>
		<edge from-layer="3067" from-port="3" to-layer="3069" to-port="0"/>
		<edge from-layer="3068" from-port="0" to-layer="3069" to-port="1"/>
		<edge from-layer="3063" from-port="2" to-layer="3071" to-port="0"/>
		<edge from-layer="3069" from-port="2" to-layer="3071" to-port="1"/>
		<edge from-layer="3070" from-port="0" to-layer="3071" to-port="2"/>
		<edge from-layer="3057" from-port="2" to-layer="3072" to-port="0"/>
		<edge from-layer="3071" from-port="3" to-layer="3072" to-port="1"/>
		<edge from-layer="3072" from-port="2" to-layer="3074" to-port="0"/>
		<edge from-layer="3073" from-port="0" to-layer="3074" to-port="1"/>
		<edge from-layer="3074" from-port="2" to-layer="3076" to-port="0"/>
		<edge from-layer="3075" from-port="0" to-layer="3076" to-port="1"/>
		<edge from-layer="3076" from-port="2" to-layer="3077" to-port="0"/>
		<edge from-layer="2972" from-port="2" to-layer="3077" to-port="1"/>
		<edge from-layer="3077" from-port="2" to-layer="3079" to-port="0"/>
		<edge from-layer="3078" from-port="0" to-layer="3079" to-port="1"/>
		<edge from-layer="3079" from-port="2" to-layer="3081" to-port="0"/>
		<edge from-layer="3080" from-port="0" to-layer="3081" to-port="1"/>
		<edge from-layer="3081" from-port="2" to-layer="3083" to-port="0"/>
		<edge from-layer="3082" from-port="0" to-layer="3083" to-port="1"/>
		<edge from-layer="3083" from-port="2" to-layer="3085" to-port="0"/>
		<edge from-layer="3084" from-port="0" to-layer="3085" to-port="1"/>
		<edge from-layer="3085" from-port="2" to-layer="3087" to-port="0"/>
		<edge from-layer="3086" from-port="0" to-layer="3087" to-port="1"/>
		<edge from-layer="3087" from-port="2" to-layer="3088" to-port="0"/>
		<edge from-layer="3088" from-port="1" to-layer="3090" to-port="0"/>
		<edge from-layer="3089" from-port="0" to-layer="3090" to-port="1"/>
		<edge from-layer="3090" from-port="2" to-layer="3092" to-port="0"/>
		<edge from-layer="3091" from-port="0" to-layer="3092" to-port="1"/>
		<edge from-layer="3092" from-port="2" to-layer="3093" to-port="0"/>
		<edge from-layer="3083" from-port="2" to-layer="3093" to-port="1"/>
		<edge from-layer="3093" from-port="2" to-layer="3095" to-port="0"/>
		<edge from-layer="3094" from-port="0" to-layer="3095" to-port="1"/>
		<edge from-layer="3095" from-port="2" to-layer="3097" to-port="0"/>
		<edge from-layer="3096" from-port="0" to-layer="3097" to-port="1"/>
		<edge from-layer="3097" from-port="2" to-layer="3099" to-port="0"/>
		<edge from-layer="3098" from-port="0" to-layer="3099" to-port="1"/>
		<edge from-layer="3099" from-port="2" to-layer="3101" to-port="0"/>
		<edge from-layer="3100" from-port="0" to-layer="3101" to-port="1"/>
		<edge from-layer="3101" from-port="2" to-layer="3103" to-port="0"/>
		<edge from-layer="3102" from-port="0" to-layer="3103" to-port="1"/>
		<edge from-layer="3103" from-port="2" to-layer="3106" to-port="0"/>
		<edge from-layer="3104" from-port="0" to-layer="3106" to-port="1"/>
		<edge from-layer="3105" from-port="0" to-layer="3106" to-port="2"/>
		<edge from-layer="3106" from-port="3" to-layer="3108" to-port="0"/>
		<edge from-layer="3107" from-port="0" to-layer="3108" to-port="1"/>
		<edge from-layer="3108" from-port="2" to-layer="3109" to-port="0"/>
		<edge from-layer="3106" from-port="4" to-layer="3111" to-port="0"/>
		<edge from-layer="3110" from-port="0" to-layer="3111" to-port="1"/>
		<edge from-layer="3111" from-port="2" to-layer="3112" to-port="0"/>
	</edges>
	<meta_data>
		<MO_version value="2021.3.0-2767-91fe355156e-releases/2021/3"/>
		<cli_parameters>
			<caffe_parser_path value="DIR"/>
			<data_type value="FP16"/>
			<disable_nhwc_to_nchw value="True"/>
			<disable_omitting_optional value="False"/>
			<disable_resnet_optimization value="False"/>
			<disable_weights_compression value="False"/>
			<enable_concat_optimization value="False"/>
			<enable_flattening_nested_params value="False"/>
			<enable_ssd_gluoncv value="False"/>
			<extensions value="DIR"/>
			<framework value="onnx"/>
			<freeze_placeholder_with_value value="{}"/>
			<generate_deprecated_IR_V7 value="False"/>
			<input value="0,1,2"/>
			<input_model value="DIR/bert-large-uncased-whole-word-masking-squad-fp32-0001.onnx"/>
			<input_model_is_text value="False"/>
			<input_shape value="[1,384],[1,384],[1,384]"/>
			<k value="DIR/CustomLayersMapping.xml"/>
			<keep_shape_ops value="True"/>
			<legacy_mxnet_model value="False"/>
			<log_level value="ERROR"/>
			<mean_scale_values value="{}"/>
			<mean_values value="()"/>
			<model_name value="bert-large-uncased-whole-word-masking-squad-0001"/>
			<output value="['3171', '3172']"/>
			<output_dir value="DIR"/>
			<placeholder_data_types value="{}"/>
			<placeholder_shapes value="{'0': array([  1, 384]), '1': array([  1, 384]), '2': array([  1, 384])}"/>
			<progress value="False"/>
			<remove_memory value="False"/>
			<remove_output_softmax value="False"/>
			<reverse_input_channels value="False"/>
			<save_params_from_nd value="False"/>
			<scale_values value="()"/>
			<silent value="False"/>
			<static_shape value="False"/>
			<stream_output value="False"/>
			<unset unset_cli_parameters="batch, counts, disable_fusing, disable_gfusing, finegrain_fusing, input_checkpoint, input_meta_graph, input_proto, input_symbol, mean_file, mean_file_offsets, move_to_preprocess, nd_prefix_name, pretrained_model_name, saved_model_dir, saved_model_tags, scale, tensorboard_logdir, tensorflow_custom_layer_libraries, tensorflow_custom_operations_config_update, tensorflow_object_detection_api_pipeline_config, tensorflow_use_custom_operations_config, transformations_config"/>
		</cli_parameters>
	</meta_data>
</net>
